best_model/best_cnn_model_random.pth (torch, 19653 bytes, 11 tensors)

weight f4 [16, 9, 1]
00000000: 27f3 a7bd ec69 003f 011c 15bd bfa8 663e
00000010: 683d 273e 5b6d 7f3e 4f36 2d3e 047a 70bd
00000020: f444 2b3e 0287 8dbd 3290 4cbe 6779 6ebe
00000030: 26eb 533e ce76 d33c cb27 ae3d 24bf 65be
00000040: 033a 8abe 902c 0cbd 5e82 2fbd 72ad 4b3e
00000050: 105b 313e db37 a63e 40c6 193c 9aff b3bc
00000060: c927 e53c da95 f23d c487 ce3d 1409 54be
00000070: 62de 1e3e d648 343c f248 c03c ce1e adbd
00000080: 5783 9f3e b467 9fbe 78a8 ea3d 8f34 803e
00000090: bf1f 073e 6845 21be 2f88 00bd 41ed 283d
000000a0: 05d6 3ebd 7329 2b3e 7264 d83d 64dd 8aba
000000b0: 8340 9f3c 8a9c d4bc 178d 07bd fc40 01bc
000000c0: f972 17bd e9e4 693c 9eac 863e 2708 a6be
000000d0: b633 01be 0256 a2be 2cb3 c8bc b4c3 93bc
000000e0: f658 3abe edf2 92be fb49 1dbe 1aaa a3be
000000f0: 18b7 3cbe e574 a5be 9017 f8bd 47e9 033c
00000100: 3794 3f3e e90f 2dbd ea9c 85be 7bd4 d03e
00000110: 3074 5a3d 2e38 b63e 64e7 053e d19a db3c
00000120: 6b33 d03d 61ce e9bd deec 823e 9e21 73be
00000130: 9817 75be f0f9 b93d 54ac a03d 7002 63bd
00000140: 2d7a 80bd 39dd 873a 210e 1b3e 0949 90be
00000150: 78b7 6c3e 152a a73c 1d03 6b3c 54c6 bebd
00000160: f0c5 96be e947 d6bd 1a61 363e 756b 763d
00000170: e866 c03c a02c 0dbc 08e9 62bd bc0b 443e
00000180: 7770 07be 7223 c3bd 3495 15be fc76 e3bc
00000190: fa47 9bbd 3e3c c63c abcf 14bd f4e8 763d
000001a0: 83ab ad3e 5da1 cabe df2e 99be 03fe 463e
000001b0: ec54 ccbd 5035 0a3e feb3 46be fd4d 973e
000001c0: 8cd4 5b3e 4dff 65bd 7426 65be 0bac 013e
000001d0: 259a db3d 7bce c1bd e266 d33e baa7 2cbd
000001e0: 50dd b63e 86d8 bf3e da18 773c 0c46 283d
000001f0: 911f a13d 3e09 aa3d 30f0 05b9 8fbd 1dbd
00000200: 48e6 a53d 28ba 42bd 30c5 cdbb 1f5a 563d
00000210: 0909 d53e dd94 52bd 7f06 64be f1bc 0a3e
00000220: 6295 243e 7b05 90bc f414 983e 8644 503e
00000230: f5e1 163d 5bc0 3d3e 1cbb ddbb bad8 0abe
-0.082006745 0.50161624 -0.03640366 0.22525309 0.16332018 0.2494406 0.16915248 -0.058710113
0.16725522 -0.06910516 -0.19976881 -0.23288499 0.20695171 0.025813486 0.08503684 -0.22436196
-0.26997384 -0.034222186 -0.042848937 0.19890383 0.17319894 0.3246449 0.009385645 -0.021972466
0.027973073 0.11844988 0.10084489 -0.20706588 0.1551452 0.011003694 0.023472283 -0.08453141
0.31154892 -0.31133807 0.11457914 0.250401 0.13195704 -0.15749133 -0.031379875 0.041241888
-0.046590824 0.1671503 0.105660334 -0.0010594544 0.019439941 -0.02595355 -0.033093538 -0.007889029
-0.03697488 0.014275768 0.2630357 -0.32428095 -0.12617382 -0.31706244 -0.024499498 -0.018037654
-0.18197998 -0.28700963 -0.15360253 -0.31965715 -0.1842922 -0.32315746 -0.12113869 0.008051223
0.18708883 -0.0422515 -0.26096278 0.4078711 0.05333346 0.35589737 0.1307655 0.02680722
0.10166057 -0.11416317 0.2557134 -0.23743293 -0.23934782 0.09080875 0.07845369 -0.055422246
-0.06273303 0.0010365612 0.15142109 -0.2818072 0.23116863 0.020405808 0.014344004 -0.09315172
-0.2944789 -0.104629345 0.17810479 0.060161073 0.02348657 -0.008616596 -0.055398017 0.19145101
-0.13226496 -0.09528245 -0.14607698 -0.027766697 -0.07582088 0.024198648 -0.03633086 0.060280755
0.33919916 -0.39576235 -0.29918572 0.19432835 -0.09977135 0.134969 -0.19404599 0.29551688
0.21467799 -0.056151677 -0.2237795 0.12663285 0.1072276 -0.09463211 0.4128943 -0.042152144
0.35715723 0.37469882 0.015081609 0.041082427 0.07867349 0.08302544 -0.00012773345 -0.038510855
0.08100563 -0.047540814 -0.00627961 0.05233204 0.41608456 -0.0514115 -0.22268103 0.13548638
0.1607261 -0.017580738 0.29703486 0.2033864 0.036836583 0.18530409 -0.00676669 -0.13559237

bias f4 [16]
00000000: 58ca 333d 1742 f0bc c876 53bb be3c 3d3e
00000010: 9d0d eb3d 8c38 46bc 3812 8a3d a1af 1bbb
00000020: 7a56 6bbd a7a1 6f3c 6a7d 7cbc 04b2 d93c
00000030: c90b 053b 820a bbbb 69a4 c7bc aa11 d5bb
0.043894142 -0.02932839 -0.0032266844 0.18480203 0.11477206 -0.012098443 0.06741756 -0.0023755806
-0.057455517 0.014625943 -0.01541076 0.026574142 0.0020301214 -0.0057080397 -0.024370389 -0.00650235

weight f4 [16, 9, 2]
00000000: b5e1 423e 55cc 08be 3a51 88bc c459 67be
00000010: 7052 59be ab1f 08be ea23 0f3e 3b34 b73d
00000020: 9701 f63b fdec 953d 56d7 ff3d 61c7 933d
00000030: bee6 e13d df61 67be cb2f cdbd 3635 16bb
00000040: d454 d93c 56f2 2f3e 3c2c c6bd 9bf5 a23d
00000050: b4f7 4dbd 6c06 76bd 24fe 833d a2e0 84bd
00000060: 4f10 db3c 1a4d 883d 2c23 9abe 6d14 02be
00000070: c6b1 203e 4e30 4fbd 5760 543d 1ed9 313c
00000080: 209e 423c 119f 183d 39c8 06bc 227d 8bbe
00000090: 1e20 263e d700 3abd a1d1 6dbe 51a9 88bd
000000a0: 1d84 a9bd 0ab8 ccba ad1b 133b c03a 0fbe
000000b0: f9cd 023c 2b73 71ba b272 ef3c 97b4 83bd
000000c0: 61bb 93bb 8fa3 b1bd 811f 463d 4761 63be
000000d0: d908 6fbe 3864 5f3e 91cc ce3d 1e74 e73d
000000e0: 59b6 4f3e 86e2 01bd 2d4e 20bd ebd4 17bd
000000f0: cc4e 7a3e 5f68 12be 6747 483e cf5b 8b3d
00000100: 8583 4c3e a3ab 853d 9d7b 6b3e e542 4e3e
00000110: 0caa 32bd 21a2 a6bc 46d5 0a3e e6b3 253e
00000120: 0169 d0bd 444f 693d 0722 a33b cd34 433c
00000130: a5c4 87bd ff90 1c3d 2169 29be 3ea9 a83d
00000140: 49aa a73d bf25 6b3c 2954 9b3e d08f 1e3e
00000150: 1dc9 b1be 3a17 4bbe 8aac 17bd ba62 2f3d
00000160: 358b 85bd 00b6 9fbd 60d6 94bd 3712 493e
00000170: 0ae0 30be ca49 1b3e f5b9 2f3e 2b0e 123e
00000180: c7f5 bcbc ce70 853d 840e e3bc 8439 d9bd
00000190: 42ef 643e 6bb5 e83d f871 64be 3821 02be
000001a0: 983a 7b3d 2419 b33c 8c84 8bbc 5114 babd
000001b0: f9b3 d53d db6b 3c3d 7410 d7bd 34aa b5bc
000001c0: 074d 193b 8239 01bd 52d4 3c3e 70dd d33c
000001d0: 46cd b43c 0df3 b23d c5b3 1a3e 5a09 6ebd
000001e0: a627 b43d 6816 2ebc e414 cfbd d434 73be
000001f0: 2850 733e 6b35 c1bd bb7e d2bc 23a8 afbc
00000200: fd2a 5d3e dcd4 ec3c b5c4 31bd 6129 3abe
00000210: 1b1c 633e fcc6 97be 7a29 923e 56f8 34bc
00000220: a2d5 2bbe 3ac0 773c f2e2 9a3e 8bf6 ee3d
00000230: 2880 203d 1ef2 0d3e b541 ed3d e141 2bbd
00000240: ee58 ab3d 5ae8 17be ee4f acbd a2de 21be
00000250: 72db 2cbe 85f6 2cbe ea61 d8bd ed81 ae3d
00000260: d9aa 9c3d c004 0d3d 83b2 833e 664e 023e
00000270: d90d 24be 95f5 6ebd 5cb8 d0bd 9a6f b2bd
00000280: 3220 bb3d 317e 49be e40b 933c f47b 233e
00000290: 29c7 7fbc 86ce 51be 4311 9c3e 5d24 0bbe
000002a0: 56b4 ef3b e447 5b3d 161a 8dbd b045 febc
000002b0: c8f2 2cbc 4c11 2ebe 687c 05bd 80a0 03be
000002c0: 55bc 743d 3ab4 40be 87c7 56be 254e 8bbe
000002d0: bef5 323c 53ae a7bd 5b16 193e 2352 e4bc
000002e0: 3935 acbd 7626 233b dc4f dd3d 36b3 abbc
000002f0: c2fe f23d f6b3 803d d588 cd3d 8ad4 293e
00000300: ba95 513e 646a 2f3d 2441 c43c f8ae 4a3d
00000310: 2ccd 813d 3199 203d d301 66be b995 0dbe
00000320: 567f 89be c727 3bbe 9f2b 4bbe a301 1a3d
00000330: c45c f739 97f0 d2bc d4e4 0b3e 8c89 333d
00000340: 7a19 123d aa45 163d 041a d1bd db54 0c3c
00000350: b67a 053d 1212 25be 9fdd 043d f641 7bbe
00000360: 4690 97bd b69e bd3d b604 6b3e a5b1 18be
00000370: 1053 0f3d 28a3 90bc 62e6 133e e847 933d
00000380: 8124 70be b1f5 afbd d986 053d fc7a 67bb
00000390: f4f2 4cbd 1d93 cdbc 7d44 b3bc 2213 f9bd
000003a0: 001a 933d 8f74 64be af39 27be a3ea de3d
000003b0: 1606 fcbc 76c9 a83e ddc9 bebe 85ef 603e
000003c0: fe63 89bd 0922 f5bc 99d8 ee3c fdad 06be
000003d0: e3ba bbbd 8160 18be dc3e fabb a482 15bd
000003e0: d1d4 cf3c 5622 5f3d 00de 283e c53c e2bd
000003f0: 7af5 103a a77f 58bd 5b83 50be 7e6c 3c3d
0.19031413 -0.13359196 -0.016640294 -0.22592837 -0.21222854 -0.1329333 0.13978544 0.08945509
0.0075075137 0.073205926 0.12492244 0.07215763 0.11030339 -0.22595929 -0.100188814 -0.00229199
0.026529707 0.17182288 -0.09676406 0.07957002 -0.050285056 -0.060064718 0.06444958 -0.06488158
0.026741175 0.06655331 -0.3010496 -0.12703104 0.15692815 -0.050583176 0.05184969 0.010854987
0.01187852 0.037261073 -0.008226448 -0.27243906 0.16223189 -0.045410957 -0.23224498 -0.066729195
-0.08277152 -0.0015618813 0.0022446916 -0.13987255 0.007983678 -0.0009210582 0.029229496 -0.06430929
-0.0045084213 -0.086737745 0.04836989 -0.22205077 -0.23343219 0.21815574 0.10097612 0.113014445
0.20284404 -0.03171017 -0.039137054 -0.03706829 0.24444121 -0.14297627 0.19558488 0.068046205
0.19972046 0.06526878 0.22996373 0.20142706 -0.0436192 -0.020340981 0.1355792 0.16181907
-0.10176278 0.05696036 0.0049784216 0.011914444 -0.06629304 0.038224217 -0.1654401 0.082354054
0.08186776 0.014352261 0.30337647 0.15484548 -0.3472375 -0.19833079 -0.03702978 0.042818762
-0.06520692 -0.077983856 -0.07267451 0.19635855 -0.17272964 0.15164867 0.1716078 0.14263217
-0.023066415 0.065156564 -0.027716883 -0.10606673 0.22356895 0.11362728 -0.223091 -0.12707984
0.061335176 0.021862574 -0.017030977 -0.09085906 0.10434718 0.046001296 -0.10501185 -0.022175886
0.002339186 -0.031548984 0.18440369 0.025862426 0.022070538 0.087377645 0.15107639 -0.058114387
0.08796625 -0.010625459 -0.101114064 -0.23750621 0.23761046 -0.09434017 -0.025695195 -0.021442479
0.2159843 0.028910093 -0.043400485 -0.18179847 0.2217869 -0.29644 0.2854727 -0.011045536
-0.16780713 0.015121514 0.3025127 0.11668118 0.03918472 0.13861892 0.11584798 -0.041810874
0.08366571 -0.14834729 -0.08413683 -0.15807584 -0.16880587 -0.16890915 -0.105655506 0.08520875
0.07649774 0.034428358 0.2572213 0.12725219 -0.16020907 -0.058339674 -0.10191414 -0.087126926
0.09137 -0.19677044 0.017950006 0.15965253 -0.015611448 -0.20488939 0.3048192 -0.1358809
0.007315199 0.053535357 -0.06889741 -0.031039089 -0.01055593 -0.16998786 -0.032589346 -0.12854195
0.05974992 -0.18818751 -0.20974551 -0.27208057 0.010922847 -0.081875466 0.14949934 -0.027871197
-0.08408589 0.002489475 0.108062476 -0.020959478 0.118649974 0.06284325 0.10035864 0.16584983
0.20467272 0.04282607 0.023956843 0.04948327 0.063379616 0.039208595 -0.22461633 -0.13826646
-0.26854962 -0.18276893 -0.19840859 0.037599217 0.00047180627 -0.025749488 0.1366151 0.043832347
0.035668828 0.03668753 -0.1021004 0.008565153 0.03258773 -0.16120175 0.032437917 -0.24536881
-0.07400565 0.09258787 0.22951016 -0.14911516 0.034991324 -0.017655924 0.14443353 0.071914494
-0.23451425 -0.08591784 0.032599304 -0.0035321107 -0.050036386 -0.025094563 -0.021883244 -0.121618524
0.071826935 -0.22310089 -0.16330598 0.10884597 -0.03076462 0.32966202 -0.37263384 0.2196637
-0.06708525 -0.029923456 0.029156016 -0.13152309 -0.09166505 -0.14880563 -0.007636888 -0.03650154
0.025370033 0.054476105 0.16490936 -0.11046747 0.0005529743 -0.052856114 -0.20362608 0.046001904

bias f4 [16]
00000000: cc89 c03d 1fce 9a3d 3d4b 6ebd ce1d 923c
00000010: d2a9 01bd a7c8 e83d 0862 4cb8 30e4 35ba
00000020: b9a2 3f3e 861a b73d 3004 b23d bdf9 27bd
00000030: f35f e8bd 65c4 a6bd 936e 913e 78a2 7f3d
0.09401283 0.07558846 -0.05817722 0.017836478 -0.031656094 0.113663964 -4.872869e-05 -0.00069386046
0.18714418 0.08940606 0.08692205 -0.041009653 -0.11346426 -0.08142928 0.28404674 0.0624108

weight f4 [16, 9, 3]
00000000: 5e53 973d bda3 123e 07be 803e 1fe2 a23e
00000010: 8e29 083e fbe5 803d 8c94 c4bd 8ecf b83b
00000020: 7110 79bd ce1f ef3d 18dd 4d3d 08a2 0dbe
00000030: 04d1 b93e f3a3 5d3d 2b97 13be 207d 28bd
00000040: c515 103d bee1 d5bd 4455 14bd 0c0e 94bd
00000050: e448 d1bc 1039 543d 882a 6c3d 69c8 07be
00000060: 5a93 8bbc a7d8 06be 95ab 16be c440 5b3c
00000070: d687 d7bd 1b74 323e e2aa 903e e3b2 b9bc
00000080: 3f95 7b3d 866c 8f3e 9bfc f23d c7fc 4f3b
00000090: 166f abbd 1c0d 0cbd dd3c a6bc a59c e93d
000000a0: cfac ebbc 7f6c 0fbe 4d04 dc3d 353b 1c3e
000000b0: 3a74 c33d b5c9 bf3d 9f8c 43be 2733 2abe
000000c0: 9e6d 343e f8d7 853e 3886 e8bd 04fe 45bc
000000d0: ae67 3d3a 2c1f 68bd 0cab d0bc 325d 8fba
000000e0: 1131 fe3c 3077 b8bb 792c 54be ceeb 6a3b
000000f0: a4f8 5a3e 39a9 cebd 761b 92ba 2656 c0bd
00000100: 8dac 163d af7a 2dbe 4cb9 f33d 5e8b 57bd
00000110: 0d94 383d ed54 5c3e fa87 e9bd 72bb 033d
00000120: c85b f6bd 9aed 26be 923b 123d 5230 033e
00000130: 243d 0ebe d537 3dbe 8a1d a4bd e3be 2dbe
00000140: 14f1 8abe 70af 5c3d 8c89 eebd 5a31 013e
00000150: 9975 873c 87b0 b13d 58af e0bd 49af 6dbd
00000160: 41c4 19bd df93 b43d a047 8f3e 85e9 453e
00000170: 4a2a 80bd d170 583e 3f7c 823b 1bf6 cf3c
00000180: a625 1f3e 65b3 8b3e c761 923d aa8d 9d3e
00000190: a8cd 1a3e 9c18 5d3e be8b 29be 049b 01be
000001a0: d4ec 853d 5299 183e f2cf 233e 6411 7e3e
000001b0: a29d 18be be28 f7bd 7771 03bd 9fd6 b23d
000001c0: bc8e 133e e933 79be 4776 c53c a2c9 aabb
000001d0: 082a ea3d be81 71bd 0a8f 923e 9199 0f3e
000001e0: 9bd0 fabc 3bb4 84be bcfb a43d cead fb3d
000001f0: 0870 4b3e bec2 603d 1270 943e 73e2 703c
00000200: 93db 923c 8b08 8b3d 6be1 05be 9877 4ebe
00000210: a9fd 4cbd 527a 7d3e fe24 04be 1016 013a
00000220: 7c1f 153e fe39 32bd bfca 793c ab6c ab3a
00000230: 0e84 94bc cc3d 393e 255e 393e 88b1 0ebe
00000240: e1c5 28bd d5c6 bf3d 25d3 e43c 501a fabd
00000250: c6d4 d6bd fe36 5ebd 30a8 91b9 aff6 2bbe
00000260: 94fb 8e3d 949d c73d 9e17 d5bd c6c4 06be
00000270: 7e9e 343d 572a 9f3c 3f10 d9bd 3645 c3bd
00000280: 6008 23be a06d 91be ce24 fc3d e77f ae3a
00000290: 98a0 003e d32b a6be ca97 a83d 3302 703e
000002a0: 7b21 6f3e 695b d8bd 61f4 1dbd a201 623d
000002b0: 212f aa3b cdd3 883d 503e 473d 3c99 033d
000002c0: 9b34 063e 74e3 673d 6006 b0bc cd21 25be
000002d0: 6821 d3bd 3483 48bd b501 acbd 05cf 133e
000002e0: b2ba 42be 6073 193e c5d7 0b3e da42 6bbe
000002f0: f8f5 79bd 10d9 02be 13dd fa3c ee93 843d
00000300: b251 8a3d 525b e43b 3ae9 70be 6d3c cabd
00000310: f2d0 523d 28df 7abe 6ae5 adbe de52 cebd
00000320: 5c03 913d f3d9 fc3d 258c 123d 1174 4dbe
00000330: 8a9c 883e b808 453e 4753 143e d947 58bd
00000340: 6b7e fbbc 3aba 53be a6ab d2bd ac4d 5d3e
00000350: 3594 46bb c558 72be cd93 2dbe 7bcd 423d
00000360: 107f dcbb 6e1e 933d e1c0 4a3b 3cfc 453e
00000370: dfcb 133e e8f4 143e e822 143e 2f24 c8bd
00000380: 0f84 2fbc eca0 8c3d 4529 3ebd 90bb 43be
00000390: 69ae 26bd e605 cabd ae87 0a3e fe9d ddbd
000003a0: 9e82 0abc de59 383d c528 bfbd 7a66 763c
000003b0: 3565 c9bd d710 e53d 4b12 91be ae21 8a3e
000003c0: 57a6 9ebc fa06 60be afdd 85be c15c b23d
000003d0: c9a2 afbd e0dd 1ebe d4f6 57bd e63c 40be
000003e0: 7efe 9cbe 4a6a 13be 60da 46be 82ea 0abe
000003f0: 3661 4dbe b677 363e d5f3 ddbc a9fc dc3d
0.07388948 0.14320274 0.2514498 0.31813142 0.13297102 0.06293865 -0.095986456 0.005639977
-0.060806695 0.11675988 0.05025968 -0.13831341 0.3629228 0.054111432 -0.14413135 -0.041134953
0.03517701 -0.104434475 -0.036214128 -0.07229242 -0.025547452 0.05181223 0.05765775 -0.13260044
-0.017038036 -0.13168584 -0.14713891 0.013382141 -0.105239555 0.17427103 0.28255373 -0.022668308
0.06142163 0.28012484 0.11864587 0.003173636 -0.08370797 -0.03419219 -0.020292694 0.11406831
-0.028768925 -0.14006232 0.10743008 0.1525696 0.09543653 0.093646444 -0.19096611 -0.16621076
0.1761994 0.26141334 -0.11353725 -0.012084488 0.00072252273 -0.056670353 -0.025472187 -0.0010937809
0.031029256 -0.0056294426 -0.2072009 0.0035846117 0.21383911 -0.100908704 -0.00111471 -0.093914315
0.03678565 -0.16941331 0.11900577 -0.052623145 0.045063067 0.21516772 -0.114028886 0.032161184
-0.12029225 -0.16301575 0.035701342 0.12811401 -0.13890511 -0.1847833 -0.08013447 -0.16967349
-0.27137053 0.053878248 -0.11647329 0.12616482 0.016535567 0.08676248 -0.10970944 -0.058028493
-0.037540678 0.08817267 0.27984333 0.19327362 -0.06258066 0.21136786 0.0039820964 0.025385907
0.15541705 0.27285305 0.07147556 0.30772144 0.15117514 0.21591419 -0.16557214 -0.1265679
0.06539312 0.14902237 0.15997294 0.24811321 -0.14903882 -0.12068318 -0.03209063 0.08732342
0.14409918 -0.24336208 0.02410425 -0.005212025 0.11433798 -0.058961622 0.28624755 0.14023425
-0.030617049 -0.25918755 0.08055827 0.1228901 0.19866955 0.05487322 0.28991753 0.014702427
0.017926967 0.06788739 -0.13074271 -0.20162809 -0.050046597 0.24753693 -0.12904736 0.0004924247
0.14562792 -0.043512337 0.015246092 0.001307865 -0.018129375 0.1808998 0.1810232 -0.1393491
-0.041204337 0.09364096 0.027932713 -0.1221205 -0.10489802 -0.054251663 -0.00027781865 -0.16793321
0.069815785 0.097468525 -0.10404895 -0.13161 0.044096462 0.019429369 -0.10598802 -0.09534685
-0.15921164 -0.2840395 0.123117074 0.0013313264 0.12561262 -0.3245531 0.082320765 0.23438339
0.23352616 -0.1056431 -0.038563136 0.05517734 0.0051936065 0.06681023 0.04864341 0.032128558
0.13106005 0.0566134 -0.021487415 -0.16126175 -0.10309106 -0.04895325 -0.08398763 0.1443444
-0.19016531 0.14985418 0.13656528 -0.2297472 -0.06102559 -0.12778115 0.030622995 0.06473528
0.067538634 0.006968894 -0.23526469 -0.098748066 0.051468797 -0.2449919 -0.33964092 -0.100743994
0.07080719 0.12346258 0.035778183 -0.20063807 0.2668193 0.19241607 0.14484893 -0.052802894
-0.03069993 -0.20676509 -0.102866456 0.2161166 -0.003030074 -0.23666675 -0.16950913 0.047559243
-0.006729014 0.071835384 0.0030937719 0.19334501 0.1443324 0.1454655 0.1446644 -0.097725265
-0.010712638 0.06866631 -0.046426076 -0.19114518 -0.040693674 -0.09864406 0.1352832 -0.1082115
-0.008453993 0.04500758 -0.09333948 0.015039081 -0.09833757 0.111848526 -0.2833427 0.2697882
-0.019366426 -0.21877661 -0.26145694 0.08709098 -0.08575971 -0.15514326 -0.052725628 -0.18773231
-0.30662912 -0.14396015 -0.19419241 -0.1356602 -0.20056614 0.17819104 -0.027093807 0.107903786

bias f4 [16]
00000000: 5539 c4bd e605 1b3e 36da 103d ed58 e63d
00000010: 62bf 1ebb 8f27 33bd 69e8 b7bd 8ac5 9a3e
00000020: 3985 283e f9ef 4e3e 346a b83b 0438 853c
00000030: e60a 053e 459e 81bd 9a82 2d3e a699 e7bc
-0.09581248 0.15138969 0.035364352 0.1124743 -0.002422296 -0.043738898 -0.089798756 0.30228835
0.1645707 0.2020873 0.005627895 0.016262062 0.12992439 -0.06329016 0.16944352 -0.028271507

weight f4 [16, 9, 4]
00000000: 61d6 8a3d 77d0 d13d 675f ba3b d753 d33d
00000010: 74ed 0abe 2a17 bcbd d8fc 6cbe 8d19 43be
00000020: 19f3 e53d 7849 cd3d 6887 65be f0d0 0ebd
00000030: 2178 12bd b2f7 b43c 27d0 3fbc c3d9 6c3c
00000040: dd9e 3bbe e4a4 2fbd 050b cc3b bcb2 f63c
00000050: fa86 52bd 1202 61be 6165 03be ef1c 6fbd
00000060: 72c3 8e3e 015c 13bd ab5d 60be 3d4e ee3c
00000070: f427 d63c 57df 103d bf69 dabe 4644 11be
00000080: 32aa 4bbe 0ed3 0ebe f826 35be 6220 b5bd
00000090: 9027 7d3e dddf ef3c d719 cc3d c003 db3c
000000a0: 3762 a8bd 2db1 543c b227 36bc 8b8d 9a3c
000000b0: c8bf d9bc c8d3 293c 8e62 773d b134 343c
000000c0: 72e6 463d 1d78 053e c5da 003e 6b3c fe3d
000000d0: 6d06 ed3d 17d4 023c a971 853c 45e6 cc3a
000000e0: f98e 2e3e 278b 573e f355 b83d 2f6f 62bd
000000f0: daba 113e 22e2 91bd fbcf 913d ddb5 363e
00000100: 4ecf cdbd 9858 30bd eb67 6dbe 0056 c5bd
00000110: 0adc 0ebe 900c 073e 1b36 0c3e ad86 e23d
00000120: c5f5 0b3b 530b ebbd d189 adbd f159 86bc
00000130: fff7 603d 821a 753d 58f3 1fbd d1fa edbd
00000140: 0385 613d 0205 7e3d e946 753e 4c53 ac3d
00000150: 08a3 943d 2fb5 4b3e 5a2b fc3d d8b5 6bbe
00000160: 2fb9 dc3c 44ef d0bd 3589 913d a84d b8bd
00000170: b1c1 363e fb9d 653e 1bb0 2a3d a641 7c3e
00000180: aabd 063e f83d 43be c8ea a73c 1166 783e
00000190: cd4e 1bbe 727a 20bd 4f29 c93d 7f31 10bd
000001a0: aed8 8bbd 1af8 9e3d 7599 623e 531c 423c
000001b0: 4d13 063b f179 fc3d 086a 263e 15c1 673d
000001c0: 1df9 2bbd 4fee b73e 132d 68be 59ca c5bd
000001d0: 0d11 7bbd 1e30 2cbe 7fe2 71be 1e01 99bd
000001e0: 748d e7bc 6b91 023e b041 a7bc a5a4 26bd
000001f0: 0e03 f8bc 02fe fdbc 0ffb e83c 0bab 083d
00000200: f6a8 873d 5d83 02be a84f bcbc c204 29bc
00000210: c7bb 6d3d 57b4 83bc d8b7 823c b1a9 16bd
00000220: 0a0c 733d ed33 993c b9c6 17be 12d7 6fbe
00000230: 1df6 afbd e035 8dbd a3ba 8ebe 4300 ab3d
00000240: f5ee 0dbe 2630 873d 643c 5ebd f351 01be
00000250: be98 fbbd c238 98bc c42f 72be 932f 8a3c
00000260: 944c 303d abd1 52be d6cd 69be cf50 b23d
00000270: 254a 4c3e cfaa 1e3d 4d4b 6f3d e507 b8bd
00000280: 6148 f7bd e904 2dbd ad74 8b3d 1300 3dbd
00000290: 2bd5 eb3d e464 973c 0cd0 e7bb 0807 6dbd
000002a0: 92ed 493d 13c3 60bd 67e9 613c 3dc9 f63c
000002b0: 3c1f 0f3c cdc4 19be f794 babc 4c40 11ba
000002c0: 0509 903c b421 3cbe 5eca febd b0b7 09be
000002d0: 7adb 13be 66f4 4a3d fd84 93bd 323b e3bd
000002e0: 0a59 83be 4953 f3bc c2cd 4ebe 2025 71be
000002f0: 5470 97bd 38d2 e5bd 9d9c 8bbe bf38 33be
00000300: e882 e73c 010b 273c 24a7 c83d f635 ac3c
00000310: d4b1 03be daf2 90bd e264 00bd 6f1a 52bd
00000320: 0e70 e9bd c8e9 74bd 97ad 863d 2776 6cbd
00000330: 078b 973c 3742 29bd 7199 ca3c 8eb3 9fbd
00000340: acb3 aabb 62b9 f6bd cc33 f0bd 2ae0 b5bd
00000350: 1e3b 943d ce75 58be 3c60 e5bd 7eb3 4ebe
00000360: 7241 babd ba06 993d 2756 253e 6522 22be
00000370: 5df0 32be b521 a53c b5b1 c0bc df0f 44be
00000380: 7877 1abd d5cb 3fbe bc28 5cbe 09eb 2fbd
00000390: 6cf5 c83d b30a 92bd 9af0 933c d21f 83bc
000003a0: 8a9f afbd f98d c8bc 87cc 0c3d af9a e1bc
000003b0: 42f2 d1bd 4b5b 16bc dbd4 443d 113b 3bbd
000003c0: e71c ea3d 7df9 ecbc 8e31 293d 06ab babc
000003d0: cd35 6fbd d815 c1bd b9b1 df3c 226a 3a3d
000003e0: dc77 5dbd 135f 5bbe 4b6e febc f0e8 88be
000003f0: afc9 2b3e 29eb 7b3c 5122 b3bd d6a2 05be
0.06779171 0.1024484 0.0056876424 0.103187256 -0.13567144 -0.09184106 -0.23143327 -0.19052716
0.11228008 0.10023779 -0.22414935 -0.034867227 -0.035759095 0.022090767 -0.011707342 0.014456215
-0.1832232 -0.04288186 0.0062268996 0.030114524 -0.051398255 -0.21973446 -0.12831642 -0.058377203
0.27883488 -0.035976414 -0.21910731 0.029090041 0.026142098 0.035369243 -0.42658803 -0.141862
-0.19889143 -0.13947698 -0.17690647 -0.08844067 0.24722123 0.029281551 0.09965866 0.026735187
-0.08221858 0.012981695 -0.011117863 0.018866321 -0.026580706 0.010365434 0.060396723 0.010998891
0.048559614 0.13034101 0.12583454 0.124138676 0.11573491 0.0079851365 0.016289549 0.001563259
0.17046727 0.21049176 0.090007685 -0.055281814 0.14231434 -0.071232095 0.07119747 0.17842813
-0.10049306 -0.04305324 -0.23184173 -0.09635544 -0.13951126 0.13188386 0.13692515 0.110608436
0.0021356207 -0.11476769 -0.08473552 -0.01640031 0.054924008 0.059839733 -0.03905043 -0.11620105
0.05505849 0.062016495 0.23952831 0.08414325 0.07257658 0.19893335 0.12312956 -0.23018587
0.026943771 -0.10201886 0.07106248 -0.08999187 0.17847325 0.22423546 0.041671854 0.24634418
0.13158289 -0.19066608 0.020497695 0.24257685 -0.15166779 -0.039179273 0.09822332 -0.035203453
-0.06828438 0.07762165 0.22128852 0.011847573 0.0020458282 0.12327946 0.16251385 0.05658062
-0.04198562 0.35924003 -0.22673444 -0.096577354 -0.061295558 -0.1681523 -0.23621558 -0.07470916
-0.028265692 0.12750785 -0.020417064 -0.04068436 -0.030274894 -0.03100491 0.028440027 0.033366244
0.066240236 -0.12745424 -0.022987202 -0.010316076 0.058040407 -0.016077204 0.015956804 -0.036782924
0.059337653 0.018701518 -0.148219 -0.23421887 -0.08591864 -0.068950415 -0.27876768 0.08349659
-0.13860686 0.066009805 -0.05425681 -0.12628917 -0.12284993 -0.018581752 -0.23651034 0.016868388
0.04304178 -0.20587794 -0.22832426 0.08706819 0.19950159 0.038737115 0.05842142 -0.08985881
-0.12074352 -0.04224101 0.068093635 -0.04614265 0.11515268 0.018480726 -0.0070743617 -0.057868034
0.04929883 -0.054873537 0.013788558 0.030125255 0.008735474 -0.1501648 -0.02277611 -0.0005540892
0.017582426 -0.18372232 -0.12440942 -0.13448977 -0.14439192 0.049549483 -0.072031 -0.11095275
-0.2565387 -0.0297028 -0.20195678 -0.23549318 -0.07394472 -0.11221737 -0.27267924 -0.17502116
0.028260663 0.010195495 0.097975045 0.021021824 -0.12860805 -0.0707757 -0.03134621 -0.05129474
-0.11398326 -0.059793264 0.065760784 -0.057729866 0.01849891 -0.041322913 0.02473137 -0.07797919
-0.005209407 -0.12047078 -0.117286295 -0.088806465 0.07237838 -0.21138689 -0.11199996 -0.20185658
-0.09094514 0.07471986 0.16146146 -0.15833433 -0.17474504 0.020157674 -0.023522237 -0.1914668
-0.03771159 -0.187301 -0.21499914 -0.042948756 0.098124355 -0.07130947 0.018059064 -0.016006384
-0.085753515 -0.02448176 0.03437474 -0.02753958 -0.10251285 -0.009177039 0.048054557 -0.045710627
0.11431294 -0.028927559 0.041307025 -0.022786628 -0.058400918 -0.094279945 0.027306424 0.045511372
-0.054069385 -0.21422987 -0.031058451 -0.26740217 0.16776155 0.015375891 -0.0874678 -0.13050398

bias f4 [16]
00000000: e6d1 0b3e 8df9 ba3c d72d 8d3d 5f3c 523d
00000010: 8f4f 4b3e 77f3 733e 4036 2b3e 6592 823d
00000020: a689 af3c dee2 0d3e 6292 403e d54c 98bd
00000030: bbec cf3d 1c12 3d3e 49ea aa3d 747b be3d
0.13654289 0.022824073 0.06893509 0.051327106 0.19854568 0.23823343 0.16719913 0.06375579
0.02142794 0.13856074 0.1880584 -0.074365295 0.10152575 0.1846394 0.083454676 0.093008906

weight f4 [16, 9, 5]
00000000: 6128 0f3e 1605 3c3d 9d40 d03c 024e c03b
00000010: 7bc6 3fbd 2fec 2b3b 99b2 3a3c 77cc ae3c
00000020: d475 933d 7601 4dbd 8310 0abe 6778 a6bd
00000030: eb96 d43d be45 213e b83a 383e 094c 703c
00000040: 886a 11be dc43 edbd 56cd d5bd f91d febc
00000050: 4861 a3bd 3df9 03bd cb80 ea3d d80e e8bc
00000060: 3f21 803d d4a7 45be c0e5 2fbe 82b2 c3bd
00000070: 3dda c33c 3f43 a63d ac51 1fbd 5869 00be
00000080: 6cf9 dabd dd5f 11bd 0466 c03d b066 4fbe
00000090: 70ac 65be 8028 203e 10b0 5a3e a830 d93d
000000a0: 9ed7 893b 4357 f73a 58b8 94bd d4c2 523d
000000b0: f495 773d 9561 183e 046e 83b9 d07f 903d
000000c0: c418 08bc 1ed9 0bbe 866b 05be 1631 dbbd
000000d0: 226e 48be 5e6f 873d 3035 f93c 2f33 ae3b
000000e0: 0a71 f6bd 313f f0bd 1ede 01bd b322 52be
000000f0: e465 653e d85a f33c fe72 493d 3d2b 9c3d
00000100: 06ad de3a 2eb1 c8bd ce49 c8bd d4ab 183e
00000110: 43fb 8dbd 08a0 9dbc 4ee2 ec3d 77ff 9e3d
00000120: a1fa a7bb 23cf 15bc 8364 263d f159 fb3d
00000130: 3398 9ebc 76a8 0bbd 5532 df3c 47b1 67be
00000140: 494b d63d 2718 883c c25e e6bd 4634 a7bd
00000150: e1e7 953c 04de 42be 8a21 91bd c52a 873d
00000160: 4b5c 21be fad8 813c d21c 32be e472 7d3d
00000170: 97fe c0bd a381 a13d 0256 54be f34b 7abd
00000180: 1b09 a23b ba8c 583e e784 cabd db12 c8bb
00000190: 18cf 913e d79f 60be 6a5d bfbe 345b 9b3d
000001a0: e4f9 ebbd 2f7b 1abe 5b00 8a3d 9f4a bcbd
000001b0: 290d 23bd c969 01be aa95 783d db6f ed3a
000001c0: 2ba0 cdbd 92ac 7abd 3f31 193d 0f48 103e
000001d0: 16c9 ea3d e9f8 1abe 3c4e 0c3b 053b f03d
000001e0: 5da4 1ebe ff2b 8c3d 2585 143d 4ff0 073e
000001f0: b6a0 98bb 57b4 cd3d a498 003d 7be2 c2bc
00000200: 8c6e cabc dfa5 6abe ca05 8cbd d1c8 9b3c
00000210: c728 6f3d d087 6bbe b01b ddbd aa8d 0b3e
00000220: 0636 033d ce11 e73d 4c4c c5bd 5774 65bd
00000230: ddfc e5bd 7a30 08bd 55b2 29be ef16 a83d
00000240: fdd7 cd3d 89db 85bd 8e13 a1bd 7d12 ca3d
00000250: 6301 193b 84af bebd ecf0 9f3d a267 453e
00000260: 0141 d63d b5fd df3d cd52 07be 799e 0c3e
00000270: 94df 69bd d3a7 7cbb f2b5 bc3c 85c8 30bd
00000280: 8954 4e3e a502 943e 9978 bc3d 9a50 a5bd
00000290: 649a 433d a0da 133e 2bcf 8f3d 97d8 f13c
000002a0: 1e27 713d 3b9f ce3d 28e0 cabd 8846 16be
000002b0: 1b39 b4bd 7c5f 91bd c409 36bd f531 18be
000002c0: e668 b73d a10f 8c3e 329c 653e c1b5 093e
000002d0: a597 f23c c2b1 47bb b4b4 a1bc 2d90 033e
000002e0: 89a8 9fbe c57b c9bd 6ec4 08be a73c 35be
000002f0: fbba 7ebe 4eaf 91be e3c7 123e 8d94 2dbc
00000300: a956 82be 8f04 13bd 7f0c 81be b1b9 fabd
00000310: eaf7 453d cd16 27bd c2a4 94bc 18db 80be
00000320: 7bcc 04be b83c 21be 653d f3bc a728 173c
00000330: c0ca 9136 f50f 5e3d 594f 8ebb 7399 23be
00000340: 1410 08bc e34d 73bd f043 fd3d bec8 3abb
00000350: 44ad 3dbe 4441 c1bc a22f 5ebd b10c 0e3d
00000360: 4020 9e3d 093c 40be 34e7 983d e523 873d
00000370: e1a8 54be 6952 24bd f47b f7bd 5bef 35be
00000380: f8b7 56bd 5d58 7e3e 27ac 413d 4351 c33d
00000390: 7805 733b 6c20 8a3d 4032 2dbe fa46 363d
000003a0: f9b4 d1bc 5db2 9c3d f79b a33c 5f81 97ba
000003b0: fc87 3abe d4fb a8bd 4aa9 ab3d ec0b b03d
000003c0: 7e13 dd3d 7ce8 1d3d 600e 123e 23ba 483b
000003d0: 91b4 37be 5401 c03d 2ca8 6e3b 3355 e43d
000003e0: 0deb 5e3d 89bc 90bd c5cc 073e d332 003e
000003f0: d038 253e 9666 4abd 73e4 e43c f46e 7e3e
0.13980247 0.045903288 0.025421435 0.0058686743 -0.046820145 0.0026233306 0.01139512 0.02133773
0.07200208 -0.05005022 -0.13482861 -0.08128434 0.10380348 0.15749261 0.1799115 0.014666566
-0.14200795 -0.11585209 -0.10439555 -0.031020151 -0.07977539 -0.032220114 0.114503466 -0.02832739
0.06256341 -0.19302303 -0.17177486 -0.09555532 0.023907775 0.08118295 -0.038896248 -0.12540185
-0.10692105 -0.035491813 0.09394458 -0.20254016 -0.22429061 0.1564045 0.21356225 0.106049836
0.004206612 0.001887061 -0.07261723 0.051455334 0.06044574 0.14880975 -0.00025068235 0.07055628
-0.008306686 -0.13657042 -0.13029298 -0.10702722 -0.19573262 0.066130385 0.03042087 0.00531616
-0.12033279 -0.11730803 -0.031705968 -0.20521049 0.2240215 0.029706404 0.04918193 0.076254345
0.0016988821 -0.09799419 -0.09779702 0.14909297 -0.0693269 -0.019241348 0.11566602 0.0776357
-0.005126313 -0.0091436235 0.0406232 0.12273014 -0.019359684 -0.034096204 0.02724568 -0.2262622
0.10463578 0.01661308 -0.11248542 -0.08164267 0.018299045 -0.19030005 -0.07086475 0.065999545
-0.15757863 0.015850533 -0.17393807 0.061877146 -0.09423559 0.07886054 -0.20735934 -0.061107587
0.004944933 0.21147433 -0.0988863 -0.0061057634 0.28478312 -0.21935974 -0.37375957 0.07585755
-0.11522272 -0.15086053 0.06738349 -0.0919392 -0.039807472 -0.1263801 0.060689606 0.0018115
-0.10040315 -0.061199732 0.03740048 0.14089988 0.11464135 -0.15134014 0.0021408936 0.11730007
-0.15492387 0.06844329 0.03625979 0.13275264 -0.00465783 0.10044163 0.03139557 -0.023789635
-0.024710916 -0.22914837 -0.06837042 0.019016655 0.058388498 -0.23001027 -0.107962966 0.1362826
0.032033943 0.11282693 -0.09633693 -0.056019153 -0.112298705 -0.033249356 -0.16571935 0.08207499
0.10050962 -0.06536014 -0.07865058 0.098668076 0.0023346774 -0.09310821 0.07809624 0.19277814
0.10461617 0.10937063 -0.1321518 0.13732328 -0.057097986 -0.003855218 0.023035977 -0.04315998
0.20149435 0.28908268 0.0920269 -0.08072014 0.04775466 0.14438868 0.07021936 0.029522223
0.058875196 0.100889646 -0.09906036 -0.14675343 -0.087999545 -0.0709829 -0.044442907 -0.14862807
0.08955555 0.27355674 0.22422865 0.1344824 0.029613325 -0.0030470942 -0.019739486 0.12847967
-0.3118327 -0.0983806 -0.13356182 -0.17698918 -0.24876015 -0.2845406 0.14334063 -0.010594499
-0.2545674 -0.03589302 -0.25204846 -0.12242449 0.048332132 -0.04079323 -0.018144969 -0.25167155
-0.12968628 -0.15745819 -0.029692361 0.009226001 4.34494e-06 0.054214437 -0.004342955 -0.15976505
-0.008304615 -0.05940045 0.12366474 -0.0028501 -0.18523127 -0.023590691 -0.054244645 0.034680072
0.07720995 -0.18772902 0.074659735 0.06598643 -0.20767547 -0.040117655 -0.12084189 -0.17767088
-0.05242154 0.24838395 0.047283318 0.09536984 0.0037082117 0.06744465 -0.169137 0.044501282
-0.02559899 0.076512076 0.01997183 -0.0011558941 -0.18215936 -0.082511574 0.08381899 0.08596024
0.107947335 0.038551793 0.14263296 0.0030628524 -0.17939974 0.09375253 0.0036416156 0.11149063
0.05442338 -0.0706721 0.13261707 0.12519388 0.16134953 -0.04941424 0.027940964 0.24847013

bias f4 [16]
00000000: e85f 613d b1e8 cbbc 64ab 993d 337c dd3d
00000010: d212 ec3d 19da 8f3d 3905 5b3d e42e 263e
00000020: 75db 41bd 92f8 4c3e af11 40bd d3c7 bb3d
00000030: d841 243c 33c3 853d 981a 963e 2481 1d3e
0.055023104 -0.02489123 0.07503393 0.10814705 0.11527027 0.07024021 0.053471778 0.16228825
-0.04732843 0.20016697 -0.046891864 0.09168973 0.010025464 0.06531372 0.29317164 0.15381294

weight f4 [1, 640]
00000000: 79a8 95bd 1588 953d 833c 4fbe 4254 3f3e
00000010: 4afa 883e 5ff2 b6bc 29a9 6b3d a742 f73d
00000020: b7e0 2fbb 4809 9bbc 4453 d6bd 96e0 cb3d
00000030: 9756 eabd 8312 143d e7f4 47bd 438a 613d
00000040: 8580 7bbe c6c3 d53d f969 0e3c 7902 7ebe
00000050: 088d 01bd 5e0b 783e 2441 743d 731d d23d
00000060: 7995 fb3d b1d6 563d c4b0 8dbd d3bd 0a3e
00000070: 5b2c 0b3e 7a17 9ebc 6254 a8be e3fa 5fbe
00000080: e4dd 53be e166 a53d a400 e9bc e63c 3ebd
00000090: e605 b13d de43 cf3d 3962 b2bd d7a1 11be
000000a0: 4d53 c2bd 33a9 d9bd 9737 cdbd e97d 13bd
000000b0: cc61 c13d 39b0 bbbd 62ca 8a3b dee0 bb3c
000000c0: e9c2 37bd 6054 973d 5dc9 d5be ffee 46bb
000000d0: c4b9 943b 3592 adbc 7cdd ba3a 3eda 123e
000000e0: 0087 ec3a 4579 86bc 92d3 b6bc 7415 41be
000000f0: e487 c43d 702d 383e 274c 08be 07c3 083d
00000100: 56c9 1ebe 2773 533e 5b30 f6bd 98a6 853d
00000110: 5dfe c93d e034 0dbe 17de 73bd b604 953e
00000120: f401 5b3e 2719 993e 0665 b03d 8c45 aa3d
00000130: a4a8 843d 5683 c0bc 3048 0ebc 7b12 293e
00000140: ceb7 b7ba 1f1d ad3d bc9f 233d 17f8 8f3e
00000150: a6aa f2bd 815a a43d 6982 c43b 2cda 52be
00000160: 302e 193e deb3 143e b6b7 a83d e2d6 ba3d
00000170: e918 a83b 8da5 243d 41a6 45bd 85b8 95ba
00000180: e0fb 33be 427e e93d 3106 73bd ac98 b9be
00000190: f768 26be 6b24 413c ed00 bbbd 93d8 683d
000001a0: be87 cb3d 0b4b 533d 247b 6bbc 64e5 063e
000001b0: 88e0 0bbe ed51 4cba 864f 02bf 0a55 583e
000001c0: 6606 fdbd cbf6 883b a4ac 903d 9e33 0c3e
000001d0: 2e03 b83d a07d 103e ccb9 9bbd cd68 33be
000001e0: 86cc d33d 45d5 a63c 6751 80bc cc1f 633e
000001f0: c84a 8ebd 34ed a9bc df6a c83c a0ac 0e3e
00000200: 04f4 af3d 6b6e 07bd bd7f 3a3c d2c6 7d3d
00000210: beb6 19ba 6be7 a23e 177a f13d 836b 463d
00000220: 323e 163d 3df2 893d e382 a63d f9dd 273c
00000230: 691d 4cbe 19c8 c83d 2c69 a23d 46ca 8ebc
00000240: 7be7 b6bc bd5e e43d 3282 073d abe8 1fbd
00000250: c28b fdbd badd 2e3e 8e3a 48bd 514a 41bd
00000260: 686b 223d bcb2 d83d 2c20 303d 7e20 5e3c
00000270: 5462 8bbb f4c3 ea3d bc08 023e 2714 103d
00000280: 9e11 33be 21e7 86be b02c a0bb 81eb f7bb
00000290: 7230 3e3e d66c 10be 4c92 613d 7bdd 083e
000002a0: 2498 13be 8b6e cdbd a629 eabd 1b7e 4ebd
000002b0: af26 113e bc2b ed3d 465b 94bd 6000 143e
000002c0: f118 60be c4f8 79bd 299e 0e3d 56a0 78bd
000002d0: 7261 bdbd 840e 59bd 41e6 613e 54d4 733d
000002e0: acbe 573e d1ed 4bbd cdf1 f4bd 0e45 20be
000002f0: 2f49 60bd 8f62 90bd f4c1 0f3e 2702 643e
00000300: b797 553d 599f 8f3d 0a21 1c3e 495d 6e3e
00000310: a02e 08bf 3b17 e5bc 097c f63d 2b6e c73c
00000320: db70 d1bc 5fc7 b33d 2abb d7bc b125 46bd
00000330: f228 94bc d242 3fbe 0360 01be b973 093e
00000340: 8dea 3f3e e2cc 333d a5e8 02be a621 983d
00000350: 90e2 48be d76e b5bd ab55 17be 8868 cb3c
00000360: 85cb d9bd 02db 97bd 7536 e13d 2760 b63d
00000370: c7dd 0b3d b5ae 073e 9307 54bd 6c53 e73b
00000380: 2e3c 293d 5bc5 5a3e 809d 893e 5854 2d3e
00000390: 600e 8b3c 3532 d63c f5a2 2d3e 24cc 833e
000003a0: d4c3 c0be 6642 87bd b40f 05bd bb27 8e3c
000003b0: 2c42 6cbd 3893 36be ac93 473d 30b7 b33d
000003c0: 29b7 a4bd c863 ec3b 142a 22be 0d4a 0d3d
000003d0: 2da9 e23b f7a6 033e bdfb 55be 1d89 48bd
000003e0: 66a5 64be 272e 52be f156 d6bd 10b7 88bd
000003f0: 25e2 2d3c e66d 203e 2b59 913d dca8 6ebd
-0.07307524 0.07301346 -0.20237927 0.18684486 0.26753455 -0.022332368 0.05753437 0.1207326
-0.0026836821 -0.018925324 -0.104651004 0.09954946 -0.11442297 0.036150467 -0.04881754 0.055063497
-0.24560745 0.104377314 0.008692258 -0.2480563 -0.03162864 0.24223086 0.059632435 0.10259523
0.12284369 0.05245084 -0.06918481 0.13548975 0.13591139 -0.019298304 -0.3287688 -0.2187305
-0.20690113 0.08076263 -0.028442688 -0.046444796 0.08643703 0.101203665 -0.08710141 -0.14221893
-0.094885446 -0.10627975 -0.100203685 -0.03600875 0.094424814 -0.09164471 0.0042355517 0.022934373
-0.044863615 0.0738914 -0.4175519 -0.0030354855 0.0045387466 -0.021187881 0.0014256681 0.14341065
0.0018045604 -0.016415248 -0.022317681 -0.1885584 0.095962316 0.17986083 -0.133103 0.033389118
-0.15506491 0.20649396 -0.12020942 0.06525916 0.09862969 -0.13789701 -0.059537973 0.29105157
0.21387464 0.29902002 0.08613019 0.08314046 0.06477478 -0.023500126 -0.008684203 0.16510956
-0.001401657 0.0845282 0.039947256 0.28118965 -0.11848955 0.08025075 0.0059969914 -0.20591038
0.14959025 0.14521739 0.08238165 0.09123017 0.0051299226 0.040196944 -0.048254255 -0.0011422789
-0.17576551 0.11401035 -0.059332076 -0.36249292 -0.16250978 0.011788468 -0.09131036 0.056847166
0.09938 0.05158524 -0.014372621 0.13173443 -0.1365987 -0.00077941903 -0.50902593 0.2112619
-0.12354736 0.0041798106 0.070641786 0.13691565 0.089849815 0.14110422 -0.07603797 -0.17520447
0.10341744 0.020365367 -0.015663816 0.22180098 -0.06947857 -0.02074299 0.024465023 0.13933039
0.08591464 -0.033064287 0.011382994 0.061957188 -0.00058637175 0.31817183 0.11790865 0.048442375
0.036680408 0.067356564 0.081304334 0.0102457935 -0.19933094 0.098037906 0.07930216 -0.017430436
-0.022327175 0.111508824 0.03308315 -0.03904025 -0.12380172 0.1707677 -0.048883967 -0.047190014
0.03965321 0.10580966 0.04299943 0.013557551 -0.004253665 0.11463156 0.12698644 0.03517547
-0.17487189 -0.26348212 -0.0048881397 -0.007565916 0.18573168 -0.14104018 0.05507116 0.13365738
-0.14413506 -0.1003085 -0.11433725 -0.050413232 0.14174913 0.11580607 -0.072439715 0.14453268
-0.21884514 -0.061028257 0.034818802 -0.060699783 -0.09247102 -0.05299236 0.22060491 0.059528664
0.2106883 -0.049787346 -0.11960182 -0.15651342 -0.054757293 -0.070500486 0.14038831 0.22266446
0.05214664 0.07012815 0.15246978 0.23277773 -0.53196144 -0.027965179 0.120353766 0.024344524
-0.025566509 0.087782614 -0.026334364 -0.04837579 -0.01808593 -0.18677834 -0.12634282 0.13423051
0.18741818 0.043896563 -0.1278406 0.07428293 -0.19617677 -0.08859032 -0.14778773 0.024830118
-0.106345214 -0.07414819 0.10996715 0.08905058 0.03414705 0.13250239 -0.051765036 0.007059505
0.041317157 0.21364348 0.26877975 0.16926706 0.016974628 0.026146987 0.16956694 0.25741684
-0.37649405 -0.06604461 -0.03248568 0.01735293 -0.057680294 -0.17829597 0.048724815 0.087751746
-0.080427475 0.0072140433 -0.15836364 0.03449445 0.00691714 0.12856661 -0.20896812 -0.048958886
-0.2232872 -0.20525418 -0.104658015 -0.066755414 0.010612999 0.15666923 0.070970856 -0.058266506
