best_model/best_cnn_model_bay.pth (torch, 19803 bytes, 11 tensors)

weight f4 [16, 9, 1]
0.012774368 -0.015363232 -0.026573824 0.050729804 -0.023083739 -0.01280841 0.042446624 -0.051030528
-0.16485247 0.003167403 -0.049385287 -0.0392249 0.05410258 -0.052845657 0.006144021 0.12555932
0.0063738604 -0.19142008 0.01351776 -0.0017503671 0.01984115 0.019492524 -0.015154169 -0.003605818
0.077841826 0.0118880235 -0.030142324 -0.002207345 -0.015444248 -0.020047585 0.04859885 -0.030665245
-0.015448171 0.054460365 -0.04614437 -0.15114492 0.02141161 -0.018983388 -0.06389022 0.083383694
-0.0035755564 -0.00062042114 -0.040917158 -0.112564035 -0.06354241 -0.07511648 0.16017163 -0.039767373
0.047244955 0.040023517 0.10776243 0.24580732 0.0007841788 0.10075939 0.007686701 -0.047108244
-0.039876048 0.04821182 -0.030967789 -2.3529574e-06 0.08407222 -0.02840241 -0.1719017 -0.06412777
-0.04268559 0.012908145 0.077696495 -0.09125196 -0.013572049 0.16989599 -0.044006616 -0.25500238
0.039220143 -0.013767054 -0.054080464 0.059279215 -0.0027533518 0.026909683 -0.09030118 -0.17581286
-0.095932156 0.01002934 0.0014995575 -0.016148346 -0.002639446 -0.010440241 0.08608582 0.25558332
-0.021111052 -0.019240113 -0.0127848815 -0.049536597 -0.0074311513 0.014165431 -0.008682803 0.014527712
-0.03986003 -0.09693311 -0.13489181 -0.03074639 0.011821397 0.020092562 0.017136065 -0.013765329
0.09886682 0.23187655 0.012335897 0.041881934 0.116977 0.014065985 -0.0133345695 0.1339527
0.019505922 0.054142587 -0.13366997 -0.18247971 -0.12485443 -0.08293494 0.06648151 0.046666734
0.092502296 -0.076192625 0.010290088 0.22774312 -0.008094122 0.115391575 0.024127105 -0.010619416
-0.011314845 0.038683612 -0.020137517 -0.011298417 0.047778122 -0.025224864 -0.05189339 0.009958948
-0.00039411758 -0.04362839 -0.0120481495 0.0045305183 0.06302208 0.17182706 -0.017730301 -0.0322829
00000000: 954b 513c 11b6 7bbc 59b1 d9bc 0eca 4f3d
00000010: 1c1a bdbc 5eda 51bc 83dc 2d3d 6305 51bd
00000020: 16cf 28be 3494 4f3b 3a48 4abd 4aaa 20bd
00000030: ab9a 5d3d b074 58bd c953 c93b 9f92 003e
00000040: d1db d03b a003 44be 9879 5d3c 936c e5ba
00000050: e889 a23c c9ae 9f3c 3149 78bc 964f 6cbb
00000060: 896b 9f3d fcc5 423c 09ed f6bc 1ba9 10bb
00000070: df09 7dbc d53a a4bc 960f 473d ae35 fbbc
00000080: 531a 7dbc d511 5f3d e101 3dbd bcc5 1abe
00000090: 6767 af3c 0d83 9bbc e0d8 82bd 12c5 aa3d
000000a0: e253 6abb c2a3 22ba c098 27bd f987 e6bd
000000b0: 8622 82bd abd6 99bd 0804 243e 1de3 22bd
000000c0: ed83 413d b3ef 233d 8db2 dc3d eab4 7b3e
000000d0: 5991 4d3a f05a ce3d b9e0 fb3b 93f4 40bd
000000e0: 1155 23bd c279 453d 29b0 fdbc 80e7 1db6
000000f0: 0e2e ac3d 2cac e8bc 0007 30be 6c55 83bd
00000100: 16d7 2ebd af7c 533c 571f 9f3d 4fe2 babd
00000110: 4d5d 5ebc 37f9 2d3e 4840 34bd ac8f 82be
00000120: 4da5 203d 368f 61bc 7a83 5dbd c3ce 723d
00000130: 9471 34bb b271 dc3c d3ef b8bd 4908 34be
00000140: 1478 c4bd 1a52 243c cd8c c43a 8949 84bc
00000150: 8efa 2cbb 8b0d 2bbc c34d b03d d1db 823e
00000160: 16f1 acbc 719d 9dbc ae77 51bc e3e6 4abd
00000170: 0481 f3bb 2016 683c 5142 0ebc a405 6e3c
00000180: 4544 23bd de84 c6bd 1421 0abe dadf fbbc
00000190: 88ae 413c 2899 a43c ef60 8c3c f987 61bc
000001a0: b07a ca3d 0c71 6d3e 811c 4a3c 648c 2b3d
000001b0: a391 ef3d 0475 663c 3d79 5abc e62a 093e
000001c0: e2ca 9f3c 9ec4 5d3d c8e0 08be f6db 3abe
000001d0: aeb3 ffbd cbd9 a9bd 7527 883d 9e25 3f3d
000001e0: d871 bd3d e10a 9cbd c297 283c 7e35 693e
000001f0: 359d 04bc 6b52 ec3d 35a6 c53c 0ffd 2dbc
00000200: e661 39bc b572 1e3d 6ff7 a4bc ff1c 39bc
00000210: feb2 433d 60a4 cebc 2a8e 54bd db2a 233c
00000220: 91a1 ceb9 afb3 32bd 9a65 45bc be74 943b
00000230: b811 813d 6ff3 2f3e 233f 91bc 133b 04bd

bias f4 [16]
0.065874994 0.1239405 0.02666582 0.071586244 0.029400174 0.0087721385 0.1019379 0.19324023
0.060848594 -0.0059117717 0.053607143 0.029995102 0.025934227 0.069951884 0.05136683 0.0028886506
00000000: 78e9 863d 84d4 fd3d 4772 da3c cf9b 923d
00000010: a2d8 f03c 04b9 0f3c d1c4 d03d c4e0 453e
00000020: 603c 793d 89b7 c1bb 2a93 5b3d 4ab8 f53c
00000030: 0474 d43c ef42 8f3d 0666 523d 844f 3d3b

weight f4 [16, 9, 2]
0.07359263 -0.021235153 -0.04017667 -0.0739731 0.1026035 -0.08077181 0.017213274 0.0010265367
-0.058159396 -0.009231941 -0.03605936 -0.0029013148 0.054237515 -0.052843258 0.048826456 0.030854894
-0.015103887 -0.10859193 -0.08581727 -0.026785886 0.0010442914 -0.029700246 -0.019391077 0.04234397
0.1667612 0.06092542 -0.11796774 -0.04971723 0.0028062325 -0.008732943 0.13265432 0.08950764
-0.0065917373 -2.559188e-05 0.14727582 -0.11338213 -0.021811834 -0.08287759 -0.04850887 -0.0882934
-0.008559706 -0.050597724 0.020120345 0.0013556213 -0.027873958 -0.0007422854 -0.007400531 -0.018303137
0.070993714 -0.028783146 0.041946724 -0.010822101 -0.12523174 -0.045212805 -0.07320918 -0.04198265
0.21560508 -0.0062176585 -0.058570996 0.029932778 0.0769439 0.2561505 0.2005996 0.010069582
0.091866195 0.05900583 0.28147748 0.022137595 -0.038114626 -0.012161786 0.097036056 0.05713013
-0.012267355 -0.06466902 -0.051929627 -0.12657446 -0.019965837 -0.06928363 0.021567868 0.010697275
-0.041832604 0.010281099 -0.00284107 -0.02495555 0.053266615 -0.04349539 0.050571907 -0.08404857
-0.1283613 -0.07868202 0.06474352 9.907592e-05 0.01898336 -0.03845594 0.06550282 -0.11597617
-0.013488855 0.06047775 -0.04889141 0.021959465 0.06624056 0.018368347 0.10037458 -0.14404099
0.015145457 -0.0573736 -0.025698287 -0.14313997 0.022766998 -0.02928145 0.0018983639 -0.14073537
0.06534355 -0.051949132 0.012628442 0.0035997948 -0.014888551 -0.018409466 0.054307997 -0.07615863
0.13050006 0.06896506 0.03563203 -0.072936185 -0.08278722 -0.123016044 0.0062383735 -0.07037141
-0.047587257 -0.06210143 -0.01949771 -0.054604672 0.037732963 0.006970448 -0.036093302 0.02068825
3.8709026e-05 -0.045240298 0.10127634 -0.027073411 0.02098596 -0.02237976 -0.076801166 -0.057562742
-0.0834963 -0.07297189 0.05771969 -0.022500891 0.12562105 0.17719865 -0.05942581 0.15561262
-0.2573792 0.0015642277 0.11622947 0.085390955 -0.13554947 0.09581692 -0.0104952445 0.0274533
0.061781313 -0.038026005 -0.0024819868 -0.12199527 -0.039471388 -0.09657537 -0.09236638 -0.109759636
0.06521382 0.050712336 0.023368165 0.081925385 -0.03556044 -0.115185186 0.010105091 -0.023004306
0.007892002 0.041799102 -0.11299768 -0.01296607 0.045146313 -0.038831484 -0.073206276 -0.10207488
-0.0240197 -0.047662754 0.0113391215 0.00040721643 -0.03382907 0.007483495 -0.0071479594 -0.032082282
0.086247616 -0.025723597 0.0367874 -0.09547002 -0.06032134 -0.13079661 0.05285732 0.011314869
0.077172995 -0.07753145 0.009809267 -0.069484755 0.00057036005 0.011159481 -0.009036814 -0.006344374
0.04516451 -0.024778103 0.20000634 -1.6733156e-05 0.014496331 -0.021343814 -0.033912573 -0.12984097
0.024111668 0.07905233 0.071029 0.05983453 0.14282605 -0.07057096 0.0054422216 0.02657981
-0.054722805 -0.025281206 -0.01939948 -0.07311471 -0.019078262 -0.07065876 0.056249134 -0.15365103
-0.099015005 -0.1518822 0.024884174 0.034792826 0.026032252 -0.18583488 -0.09162013 -0.021230694
-0.0275403 0.06778383 -0.050423395 0.033782743 0.14632596 0.08084311 0.32641643 -0.17850618
-0.030387668 -0.12156019 -0.06550522 0.040975925 -0.027749745 0.051626418 -0.0591829 -0.09308625
00000000: bcb7 963d 58f5 adbc 4b90 24bd 357f 97bd
00000010: c921 d23d b16b a5bd da02 8d3c db8c 863a
00000020: 8c38 6ebd 9141 17bc fbb2 13bd fc23 3ebb
00000030: 2828 5e3d 2c72 58bd 40fe 473d 67c3 fc3c
00000040: 4b76 77bc 7265 debd f7c0 afbd 136e dbbc
00000050: 9be0 883a ee4d f3bc 09da 9ebc df70 2d3d
00000060: 73c3 2a3e ef8c 793d 1299 f1bd 4ba4 4bbd
00000070: c5e8 373b 9e14 0fbc 89d6 073e c84f b73d
00000080: 80ff d7bb 25ae d6b7 79cf 163e e434 e8bd
00000090: bbae b2bc babb a9bd 3db1 46bd 2cd3 b4bd
000000a0: 023e 0cbc 8f3f 4fbd 6cd3 a43c 1aaf b13a
000000b0: ed57 e4bc ee95 42ba 2780 f2bb 76f0 95bc
000000c0: 2765 913d a2ca ebbc 54d0 2b3d 2e4f 31bc
000000d0: c03c 00be 1031 39bd b2ee 95bd 00f6 2bbd
000000e0: 94c7 5c3e 80bd cbbb 24e8 6fbd 9635 f53c
000000f0: c394 9d3d 2926 833e fb69 4d3e e3fa 243c
00000100: 5824 bc3d 19b0 713d d11d 903e e759 b53c
00000110: 151e 1cbd 3a42 47bc d7ba c63d 4801 6a3d
00000120: 04fd 48bc 3171 84bd 29b4 54bd bc9c 01be
00000130: 658f a3bc 93e4 8dbd 19af b03c a043 2f3c
00000140: aa58 2bbd 0e72 283c 3f31 3abb 956f ccbc
00000150: 182e 5a3d 3928 32bd 7d24 4f3d a821 acbd
00000160: 2571 03be 0a24 a1bd 4098 843d fbc6 cf38
00000170: fe82 9b3c fa83 1dbd 5826 863d ea84 edbd
00000180: 5c00 5dbc 84b7 773d 5c42 48bd 56e4 b33c
00000190: 21a9 873d 3779 963c 3091 cd3d 7b7f 13be
000001a0: a724 783c 9400 6bbd 3785 d2bc 4993 12be
000001b0: db81 ba3c a7df efbc 86d2 f83a ef1c 10be
000001c0: d7d2 853d 9dc8 54bd 86e7 4e3c 89ea 6b3b
000001d0: 1cef 73bc 73cf 96bc 1072 5e3d 0ef9 9bbd
000001e0: cfa1 053e 8e3d 8d3d e4f2 113d 915f 95bd
000001f0: 598c a9bd d6ef fbbd 456b cc3b e31e 90bd
00000200: dbea 42bd 125e 7ebd a9b9 9fbc 26a9 5fbd
00000210: e18d 1a3d 5b68 e43b 92d6 13bd 687a a93c
00000220: 805b 2238 e44d 39bd f869 cf3d 0fc9 ddbc
00000230: bfea ab3c c255 b7bc ee49 9dbd e9c6 6bbd
00000240: 1c00 abbd 4972 95bd 7b6b 6c3d ca53 b8bc
00000250: cea2 003e 9073 353e 7a68 73bd ea58 1f3e
00000260: 35c7 83be c606 cd3a b709 ee3d 74e1 ae3d
00000270: 7bcd 0abe a93b c43d 3ff4 2bbc bee5 e03c
00000280: 670e 7d3d 28c1 1bbd d4a8 22bb a8d8 f9bd
00000290: c0ac 21bd 4fc9 c5bd 962a bdbd a9c9 e0bd
000002a0: d38e 853d bdb7 4f3d 986e bf3c 7fc8 a73d
000002b0: d3a7 11bd 36e6 ebbd d38f 253c 8773 bcbc
000002c0: 754d 013c 8935 2b3d 546b e7bd a46f 54bc
000002d0: 57eb 383d c30d 1fbd 2ced 95bd a20c d1bd
000002e0: f6c4 c4bc 053a 43bd b9c7 393c aa7f d539
000002f0: 5a90 0abd 1b38 f53b 6e39 eabb b668 03bd
00000300: 97a2 b03d 4bba d2bc 62ae 163d c985 c3bd
00000310: 8213 77bd 8cef 05be eb80 583d 0062 393c
00000320: e00c 9e3d cfc8 9ebd 0cb7 203c 064e 8ebd
00000330: 3784 153a 41d6 363c 250f 14bc 77e4 cfbb
00000340: 6cfe 383d 73fb cabc 76ce 4c3e 2e5e 8cb7
00000350: 0582 6d3c 39d9 aebc e9e7 0abd 08f5 04be
00000360: d585 c53c 30e6 a13d a777 913d 0d15 753d
00000370: fe40 123e 8287 90bd aa54 b23b e7bd d93c
00000380: 0525 60bd 881a cfbc a9eb 9ebc 2abd 95bd
00000390: 044a 9cbc 8ab5 90bd 7e65 663d b256 1dbe
000003a0: 61c8 cabd 0287 1bbe e5d9 cb3c ec82 0e3d
000003b0: 9741 d53c 804b 3ebe 56a3 bbbd feeb adbc
000003c0: 329c e1bc 40d2 8a3d c388 4ebd c65f 0a3d
000003d0: 79d6 153e 1391 a53d 0e20 a73e 53ca 36be
000003e0: 8fef f8bc 8df4 f8bd 9a27 86bd 5fd6 273d
000003f0: 6f53 e3bc 3976 533d c569 72bd 01a4 bebd

bias f4 [16]
0.10429114 0.04242734 0.09330203 0.04270432 0.1162091 0.12789887 0.12490486 0.08692874
0.009231503 0.07154404 0.093297124 0.07293179 0.14188832 0.07397852 0.13669503 0.040536486
00000000: 9896 d53d 4ac8 2d3d 2215 bf3d baea 2e3d
00000010: 09ff ed3d ecf7 023e 1fce ff3d b207 b23d
00000020: bb3f 173c af85 923d 9012 bf3d 435d 953d
00000030: 2c4b 113e 0d82 973d c8f9 0b3e 9609 263d

weight f4 [16, 9, 3]
0.021393219 -0.050598215 0.11845646 0.061294377 0.09465446 -0.02694742 0.08793457 -0.034199193
-0.092734106 -0.1453111 0.0363076 0.08809618 -0.06712455 0.095140666 0.016866032 0.06476793
0.009550061 0.044295963 0.036642194 -0.008724726 -0.2635533 -0.029902913 -0.013041152 -0.2205057
-0.14230213 0.02249616 -0.15100744 -0.09100883 0.0494789 -0.14717084 0.08264736 -0.09214203
-0.054872617 -0.043708142 -0.047731098 -0.006380579 -0.031067636 -0.031583175 -0.07883813 0.09843629
0.034907274 -0.20545559 0.06787375 0.089491636 -0.076015025 0.08534975 -0.042801067 -0.114964634
-0.011340002 -0.021625707 0.08886456 -0.033131924 -0.05651425 0.086393125 0.056614462 0.10809149
-0.06836003 0.0870985 0.023712253 -0.08086252 -0.030669611 -0.021460533 -0.0539669 0.0292383
0.017058985 0.0013636162 -0.043152455 -0.023070224 0.004815552 0.024939448 -0.07931687 -0.008114556
0.057084378 -0.006483813 -0.03206631 0.027540138 0.035608567 -0.07540227 -0.0518061 -0.017275315
-0.08703727 -0.08093616 -0.031574674 0.08907047 0.012464257 -0.04826352 -0.04422184 -0.020394884
0.024579233 0.1285843 0.1020126 0.20803288 0.014729722 0.011455201 -0.03184162 0.05381224
0.08436816 -0.0023434472 0.10885195 0.2397361 0.086490944 0.17556547 -0.12275342 -0.00082946365
-0.027095027 0.17417748 0.037854835 0.18992044 0.027501801 0.030579172 0.030734524 0.0718728
0.017112702 0.098662406 0.10409944 -0.044647034 -0.09325337 -0.035083797 0.023989938 0.04100314
-0.078735314 0.010509677 -0.0038408383 0.007749285 -0.049741708 0.04769249 0.06321849 -0.09715019
-0.18490326 0.048947528 0.017546028 -0.15525767 -0.07017901 -0.10170305 -0.10736996 -0.12016656
-0.048475187 0.08883111 0.03606982 -0.027351681 0.016148796 0.007933627 0.05055284 0.11993506
0.044135757 0.0071295253 -0.0022712362 0.1250757 -0.15491971 -0.020162808 -0.003309977 -0.009358413
0.03881838 0.14905433 -0.16472954 0.03991555 0.052944455 0.010682835 0.059188362 0.039278176
-0.0061098007 0.17684737 -0.095648326 0.02006495 -0.08201069 -0.006406721 0.005860753 -0.085555956
0.006143385 0.13205904 -0.056497987 -0.059324153 0.15170558 0.041979626 -0.15037233 0.05464669
0.050724007 0.20336151 0.11373399 -0.15911873 -0.17738959 0.01604247 0.02238337 0.045661945
0.026720298 -0.07189908 0.0628144 -0.063029036 -0.18888102 -0.031182801 0.02776509 -0.10438498
0.015244058 0.12853158 0.025100274 0.04321993 -0.05966406 -0.14583929 -0.2532935 0.013532906
0.030946208 0.058692884 0.25357231 -0.052149575 0.1585947 0.026129704 0.120026186 0.07173675
0.13857748 -0.0081622135 0.11066513 0.0006053688 -0.119689964 -0.08083288 -0.08275309 0.10621828
0.0013250144 0.0849232 0.049252518 0.04266989 0.06949944 0.03592774 0.03803282 0.0059509086
-0.11526384 -0.029603338 0.0062154057 0.0142091755 0.0017330238 0.001325995 -0.0006494621 0.03667545
-0.06036539 -0.019501807 0.008143911 -0.054390714 -0.0660795 0.0361616 0.07702743 -0.16569498
-0.091936745 -0.11847362 -0.1500503 0.028099746 0.13449308 0.074939266 -0.05462005 -0.04205249
-0.05346064 0.093335375 -0.041091446 -0.0022672252 -0.009789011 0.03457782 0.052234583 0.018969052
00000000: d540 af3c 1340 4fbd 4d99 f23d d00f 7b3d
00000010: 33da c13d d6c0 dcbc 0a17 b43d 7414 0cbd
00000020: 61eb bdbd 6fcc 14be 47b7 143d c56b b43d
00000030: 9978 89bd 1cd9 c23d a22a 8a3c 0ca5 843d
00000040: dc77 1c3c af6f 353d 2016 163d 27f2 0ebc
00000050: 75f0 86be f4f6 f4bc 8eaa 55bc 3fcc 61be
00000060: a6b7 11be de49 b83c b2a1 1abe d662 babd
00000070: 63aa 4a3d f4b3 16be 0543 a93d f6b4 bcbd
00000080: 1cc2 60bd 4f07 33bd af81 43bd 2d14 d1bb
00000090: 8e81 febc 5c5d 01bd e375 a1bd f798 c93d
000000a0: eefa 0e3d f362 52be 6501 8b3d 6447 b73d
000000b0: c4ad 9bbd dacb ae3d 2c50 2fbd 9472 ebbd
000000c0: 6acb 39bc 6528 b1bc 9ffe b53d 57b5 07bd
000000d0: 7c7b 67bd e1ee b03d 91e4 673d 125f dd3d
000000e0: 5800 8cbd b360 b23d 3340 c23c 409b a5bd
000000f0: d63e fbbc 00ce afbc 650c 5dbd 2985 ef3c
00000100: 49bf 8b3c 5ebb b23a a1c0 30bd c4fd bcbc
00000110: c7cb 9d3b d04d cc3c e270 a2bd eaf2 04bc
00000120: 4fd1 693d 2a76 d4bb f757 03bd db9b e13c
00000130: 4ada 113d 816c 9abd a232 54bd f684 8dbc
00000140: 9940 b2bd dcc1 a5bd 7254 01bd 946a b63d
00000150: e236 4c3c f8af 45bd f621 35bd 2c13 a7bc
00000160: 635a c93c 9aab 033e fbeb d03d 9206 553e
00000170: ef54 713c 98ae 3b3c 5c6c 02bd 396a 5c3d
00000180: 37c9 ac3d 8594 19bb c5ed de3d 617d 753e
00000190: 2a22 b13d 6fc7 333e 2566 fbbd 5d70 59ba
000001a0: 64f6 ddbc 955b 323e ac0d 1b3d 817a 423e
000001b0: 754b e13c 2c81 fa3c f8c6 fb3c 0c32 933d
000001c0: f02f 8c3c 840f ca3d 1632 d53d cfdf 36bd
000001d0: 9ffb bebd 07b4 0fbd 8c86 c43c e9f2 273d
000001e0: fb3f a1bd c830 2c3c 93b6 7bbb b7ed fd3b
000001f0: f6bd 4bbd 3359 433d b278 813d aef6 c6bd
00000200: 4857 3dbe 347d 483d b0bc 8f3c defb 1ebe
00000210: 03ba 8fbd b049 d0bd c8e4 dbbd e319 f6bd
00000220: eb8d 46bd 16ed b53d f3bd 133d a210 e0bc
00000230: 7b4a 843c 0bfc 013c 7f10 4f3d 83a0 f53d
00000240: b2c7 343d cb9e e93b 05d9 14bb d813 003e
00000250: 46a3 1ebe 792c a5bc 33ec 58bb 0754 19bc
00000260: 0600 1f3d b3a1 183e dcae 28be 7d7e 233d
00000270: 49dc 583d 0f07 2f3c 7f6f 723d 27e2 203d
00000280: b934 c8bb 7a17 353e 45e3 c3bd 405f a43c
00000290: 38f5 a7bd 79ef d1bb 8f0b c03b f637 afbd
000002a0: 734e c93b 7c3a 073e 6f6a 67bd e2fd 72bd
000002b0: b558 1b3e d4f2 2b3d 34fb 19be 35d5 5f3d
000002c0: fac3 4f3d 003e 503e 5eed e83d 05f0 22be
000002d0: 9ea5 35be 7f6b 833c 545d b73c 0508 3b3d
000002e0: 87e4 da3c d33f 93bd d6a4 803d 5e15 81bd
000002f0: 076a 41be 1373 ffbc 9d73 e33c cbc7 d5bd
00000300: 37c2 793c c89d 033e 179f cd3c 6207 313d
00000310: 4d62 74bd e556 15be b0af 81be 1fb9 5d3c
00000320: e782 fd3c f367 703d 3bd4 813e cb9a 55bd
00000330: a666 223e f60d d63c 4ad0 f53d b8ea 923d
00000340: 41e7 0d3e ceba 05bc 66a4 e23d 9db1 1e3a
00000350: 0320 f5bd b68b a5bd 747a a9bd f888 d93d
00000360: 1bac ad3a 37ec ad3d 02bd 493d 9fc6 2e3d
00000370: b955 8e3d f728 133d 4dc8 1b3d d7ff c23b
00000380: 730f ecbd b382 f2bc 9aaa cb3b 9acd 683c
00000390: a126 e33a 02cd ad3a aa40 2aba ff38 163d
000003a0: b341 77bd 41c2 9fbc 0a6e 053c ccc8 5ebd
000003b0: b054 87bd 301e 143d 8fc0 9d3d f2ab 29be
000003c0: 5549 bcbd 4ca2 f2bd c9a6 19be 7031 e63c
000003d0: 8eb8 093e c279 993d 46b9 5fbd 3b3f 2cbd
000003e0: 8bf9 5abd 9e26 bf3d 814f 28bd ba95 14bb
000003f0: 1762 20bc 79a1 0d3d eef3 553d fc64 9b3c

bias f4 [16]
0.04807761 0.11035327 0.1018509 0.03877906 0.09468741 -0.03573216 -0.01730633 0.0038671321
0.15991431 0.1494695 0.0064280326 -0.014428683 0.08378736 0.008596993 0.1075849 0.112270065
00000000: 07ed 443d e500 e23d 3497 d03d cbd6 1e3d
00000010: 79eb c13d e35b 12bd 01c6 8dbc b66f 7d3b
00000020: 94c0 233e 880e 193e 3fa2 d23b 4866 6cbc
00000030: b598 ab3d 67da 0c3c 7955 dc3d d9ed e53d

weight f4 [16, 9, 4]
-0.054314308 0.07460818 -0.0504539 0.038157918 -0.060072478 0.047599483 -0.009779382 -0.05376015
-0.044046644 -0.07329919 0.09705301 0.09589031 0.015861003 -0.04832516 -0.005898979 -0.03712681
0.041853085 -0.00767916 -0.020773776 -0.1060806 0.051512424 -0.013392834 -0.017702565 -0.028204257
0.10420881 -0.0021268006 -0.052027736 0.033407874 -0.023036418 0.033415228 0.11876625 0.1057399
-0.18081637 0.0015279425 0.01250027 -0.03742876 0.09824305 0.016706511 0.094806485 -0.016652972
0.07786966 -0.023825465 0.16532649 -0.0006029238 0.23593217 -0.07471505 -0.029877737 0.0946827
-0.081050605 -0.094216466 0.007687541 0.15441246 -0.13119805 0.038085356 0.09904904 0.022289451
-0.01607438 -0.020166239 0.006638174 0.023245161 0.05133996 0.058235507 0.12207701 -0.17093296
0.10291083 -0.011738567 -0.013523212 0.094451174 0.031103322 -0.12523994 0.10378696 -0.08264272
-0.08436629 -0.0021728189 -0.03162792 0.13659427 0.026736392 -0.04355353 0.027049854 -0.09070638
0.10426741 0.03271002 -0.093166746 0.016436689 -0.24934366 -0.05997892 -0.08878344 0.000767845
0.06778565 0.0846098 -0.13670692 -0.024778403 0.11685585 0.05788632 0.029077306 -0.053053413
0.055856787 -0.10710358 -0.13977596 -0.0071772262 0.119203895 0.039924387 -0.055586044 -0.054757267
0.013852187 -0.1455642 -0.00377842 0.029144622 -0.014660531 -0.04663978 0.011265729 -0.08318081
-0.007585355 -0.008414913 -0.0723516 -0.09020226 0.04074 -0.14329524 -0.096164234 -0.10835452
0.021744136 0.008255499 0.00971898 -0.032868966 -0.063159935 -0.06688465 -0.034734573 -0.04620531
0.02917068 -0.09790611 -0.09773329 0.0039232946 0.012777572 -0.022186542 -0.034899537 -0.012909491
0.097080186 -0.016718466 -0.110288225 -0.082485974 -0.050705634 -0.06961763 -0.13642167 -0.12670062
0.039156027 0.12491879 0.05452718 -0.2060004 -0.044401214 0.019994712 -0.04996672 -0.024393182
0.13601162 -0.018898234 -0.06561744 -0.032646783 0.016939847 -0.08700784 0.044053487 0.03992483
0.01037709 -0.15676126 0.021791952 0.084003024 0.024892675 0.045440152 0.033691242 -0.068651505
0.026827678 -0.03733045 0.023863913 -0.030538578 0.056186356 -0.061263777 -0.09088936 -0.024301963
-0.024674235 -0.11126626 0.11343722 0.025416803 -0.0059190667 -0.08727524 0.019502856 0.12092254
-0.061569005 -0.02445872 -0.1071204 -0.05394589 0.033347458 0.01688527 0.12504423 0.055034913
0.038829427 0.054294556 0.06742125 0.017882237 -0.019622501 -0.07053866 -0.020601552 0.087635174
0.10204633 0.07666357 0.06120667 -0.040732015 0.23650038 -0.20948945 0.022990668 0.0395145
-0.006316223 0.043685902 0.07034515 0.0072018756 -0.15409 -0.0059816004 0.11490069 0.076368615
0.050504416 0.06009354 0.07519536 0.029017635 0.02649136 -0.034329012 -0.07064047 -0.0054448573
0.04334084 -0.07055259 0.04216158 -0.033513375 0.043744747 -0.020746661 0.057499662 0.07637933
0.0834155 -0.09900263 0.012740244 0.051126115 0.0713265 0.09306113 0.032908853 -0.0077838264
0.06505597 0.03210442 0.0297811 -0.01006851 -0.000734837 -0.09566055 -0.19260404 -0.10784619
-0.0554031 0.029618945 0.2231409 0.12438391 0.03720568 0.0070910472 -0.010107762 0.1429994
00000000: ae78 5ebd 2ccc 983d c0a8 4ebd 7a4b 1c3d
00000010: 8f0e 76bd adf7 423d b339 20bc 9a33 5cbd
00000020: 416a 34bd e31d 96bd bac3 c63d 2462 c43d
00000030: efee 813c 9af0 45bd 394c c1bb 4812 18bd
00000040: 246e 2b3d 77a1 fbbb c42d aabc c940 d9bd
00000050: b1fe 523d 9e6d 5bbc f804 91bc 9d0c e7bc
00000060: 6e6b d53d cb61 0bbb 091b 55bd b2d6 083d
00000070: dfb6 bcbc 68de 083d b83b f33d 298e d83d
00000080: ed27 39be 3e45 c83a efcd 4c3c e64e 19bd
00000090: a733 c93d 18dc 883c e729 c23d d06b 88bc
000000a0: 217a 9f3d 9f2d c3bc 594b 293e 880d 1eba
000000b0: 3498 713e 3404 99bd 28c2 f4bc 01e9 c13d
000000c0: dcfd a5bd 90f4 c0bd c5e7 fb3b 4d1e 1e3e
000000d0: c858 06be 64ff 1b3d 39da ca3d 5e98 b63c
000000e0: 6bae 83bc ab33 a5bc 0a85 d93b a36c be3c
000000f0: da49 523d 5b88 6e3d 8303 fa3d 0d09 2fbe
00000100: eac2 d23d 1e53 40bc 7690 5dbc 9e6f c13d
00000110: 65cc fe3c e63e 00be 428e d43d 9640 a9bd
00000120: 3cc8 acbd da65 0ebb 478c 01bd 5edf 0b3e
00000130: 4706 db3c 3065 32bd a897 dd3c 44c4 b9bd
00000140: 278a d53d f1fa 053d 35ce bebd 3ca6 863c
00000150: f253 7fbe 75ac 75bd 18d4 b5bd 3549 493a
00000160: 34d3 8a3d e747 ad3d e6fc 0bbe 14fc cabc
00000170: 1f52 ef3d 351a 6d3d 8833 ee3c 894e 59bd
00000180: 16ca 643d 1f59 dbbd 6e21 0fbe f02e ebbb
00000190: 2c21 f43d c187 233d 31ae 63bd 2849 60bd
000001a0: 49f4 623c c80e 15be 5e9f 77bb b4c0 ee3c
000001b0: b932 70bc 5b09 3fbd e493 383c b35a aabd
000001c0: 928e f8bb b4de 09bc 132d 94bd f6bb b8bd
000001d0: fcde 263d fdbb 12be c1f1 c4bd f9e8 ddbd
000001e0: c220 b23c 1342 073c 5b3c 1f3c 9ca1 06bd
000001f0: ff59 81bd d2fa 88bd d745 0ebd c741 3dbd
00000200: 5af7 ee3c 0083 c8bd 6428 c8bd fb8e 803b
00000210: 0559 513c 8dc0 b5bc d1f2 0ebd 5482 53bc
00000220: fad1 c63d 2af5 88bc cbde e1bd 68ee a8bd
00000230: b6b0 4fbd b093 8ebd 1fb2 0bbe cfbd 01be
00000240: 1262 203d 6cd5 ff3d e457 5f3d c5f1 52be
00000250: 0cde 35bd f3cb a33c e7a9 4cbd 36d4 c7bc
00000260: a146 0b3e 78d0 9abc 7062 86bd a2b8 05bd
00000270: 6fc5 8a3c 2b31 b2bd 6e71 343d 3888 233d
00000280: ac04 2a3c 0686 20be 0985 b23c c709 ac3d
00000290: b9eb cb3c 741f 3a3d d4ff 093d 2999 8cbd
000002a0: b8c5 db3c d0e7 18bd 417e c33c 0a2c fabc
000002b0: aa23 663d baef 7abd 3324 babd e914 c7bc
000002c0: 9f21 cabc 91df e3bd c651 e83d e636 d03c
000002d0: bbf4 c1bb 5cbd b2bd 74c4 9f3c 3da6 f73d
000002e0: c82f 7cbd a75d c8bc f161 dbbd 5ef6 5cbd
000002f0: 5897 083d fa52 8a3c 980b 003e 4a6c 613d
00000300: 9b0b 1f3d f863 5e3d 2714 8a3d c57d 923c
00000310: 5ebf a0bc 9376 90bd 96c4 a8bc 127a b33d
00000320: abfd d03d ca01 9d3d d8b3 7a3d 9dd6 26bd
00000330: 282d 723e 6784 56be ed56 bc3c f5d9 213d
00000340: 52f8 cebb fdef 323d 1e11 903d b6fd eb3b
00000350: c5c9 1dbe 4d01 c4bb 0e51 eb3d 2667 9c3d
00000360: b8dd 4e3d a524 763d 0600 9a3d 64b6 ed3c
00000370: 6904 d93c 949c 0cbd f3ab 90bd c66a b2bb
00000380: 2a86 313d e07d 90bd 9fb1 2c3d 5245 09bd
00000390: b12d 333d e7f4 a9bc c484 6b3d c46c 9c3d
000003a0: bfd5 aa3d e4c1 cabd 75bc 503c 9e69 513d
000003b0: a113 923d d596 be3d 6fcb 063d 780f ffbb
000003c0: 103c 853d ed7f 033d 7ef7 f33c 64f6 24bc
000003d0: 14a2 40ba aee9 c3bd fe39 45be 77de dcbd
000003e0: 5cee 62bd 6ea3 f23c 0c7f 643e febc fe3d
000003f0: fc64 183d 045c e83b 079b 25bc 6f6e 123e

bias f4 [16]
-0.067212254 -0.084684156 0.07565576 0.102653965 0.051902086 0.03188368 0.061162546 0.03866184
0.013544854 0.047259334 0.1656301 0.091579236 0.07020903 -0.00452347 0.109284356 0.021565692
00000000: 94a6 89bd e36e adbd 68f1 9a3d 3e3c d23d
00000010: 4897 543d 7698 023d 9485 7a3d e15b 1e3d
00000020: 3ceb 5d3c 0193 413d f09a 293e e58d bb3d
00000030: c0c9 8f3d 9e39 94bb 7ad0 df3d 89aa b03c

weight f4 [16, 9, 5]
0.17540185 -0.024506398 0.007822262 -0.015655791 0.06409458 -0.003263264 0.022447044 0.002799275
0.1788884 0.05568846 -0.2247672 0.081132345 0.16126461 0.05556294 0.038564716 -0.06514777
-0.13689294 -0.15370038 -0.04726612 0.0013434889 -0.0019395779 -0.09542846 0.0070983777 0.09187581
0.05298999 -0.33595112 -0.06611961 0.009253597 -0.025171867 -0.023507703 0.018962722 -0.0505848
0.0061966814 0.0011266213 -0.058953717 -0.0055480553 -0.06673209 0.17195019 0.14362371 -0.03546436
-0.028506072 0.09462398 -0.014259873 0.008111992 0.020560857 0.06506651 -0.06814474 -0.03854032
0.10937998 0.021704337 -0.0011860478 -0.07036989 -0.033921618 -0.09239387 0.08463445 0.002969427
-0.06204291 0.07788621 0.10166024 -0.02706604 -0.01963025 0.037166744 0.031398587 0.00038204575
-0.031585045 -0.05879044 0.050167102 0.043184698 0.047042765 -0.06562857 0.024537437 -0.019339742
0.058640044 0.05546637 -0.021129873 0.14637762 -0.057688575 -0.08851614 0.054308746 -0.11197264
0.004892539 -0.0061647766 0.11787272 0.039173137 0.045065656 0.029699355 -0.12006647 0.0388013
0.054659065 0.010934355 -0.014533002 0.15214214 0.13704343 0.01951108 -0.02223119 0.21035764
-0.08366972 -0.05564999 -0.05255938 0.0037465536 -0.11217627 0.048672043 0.04123484 0.03469449
-0.03203053 0.10301688 0.16858846 -0.011669321 0.07133505 0.14071953 0.04391803 -0.06801575
0.026114265 0.091089554 0.108091 0.1655019 0.11477491 0.013663773 -0.024551002 0.028616972
0.16913208 0.07751659 0.042476438 0.09956157 0.09988351 0.052926898 -0.036227737 -0.1777709
-0.17867023 -0.07491585 0.20591623 0.0710049 0.27250633 0.19322172 0.15992703 0.012081543
-0.059726264 -0.043788344 -0.11035361 -0.055132277 -0.008806629 -0.036006846 -0.07640114 -0.015504417
-0.076679446 -0.0545205 -0.14258084 -0.09770146 -0.030545374 -0.019301252 0.06454189 0.053811066
0.03320233 -0.050279956 0.0736065 -0.076680675 -0.04815275 0.03569733 -0.03255626 -0.02938596
0.010078168 -0.11393339 0.059672654 0.0076172375 0.016852079 0.1892004 -0.06839342 -0.0004598909
-0.015198648 -0.0812553 0.06522895 -0.13141175 -0.010762519 -0.08436774 0.13105716 -0.025556253
-0.13413088 -0.13307083 -0.007835018 -0.010787584 -0.040055178 0.049451523 0.13281651 0.18975575
0.096612595 0.048793092 -0.00042448347 -0.06317828 -0.071939416 -0.0064191385 0.014216672 0.03844854
0.08884782 0.0392988 -0.053539157 0.0035844785 0.12215986 0.11896712 0.061137866 0.032893952
0.034345876 -0.060365047 0.010654627 0.08531055 0.116799496 0.12459234 0.121357515 0.042623144
-0.04964552 -0.030794252 0.1275591 -0.073160544 0.037112795 0.039091393 0.02736 0.016461896
0.018156543 -0.066528015 -0.11806085 -0.07073164 0.028780337 0.0030869218 0.16101404 0.17506412
0.13856529 0.0082384255 -0.077508405 -0.021243045 -0.16783623 -0.047600426 -0.041620724 -0.014955962
-0.112513095 -0.07904441 -0.029064523 0.021307148 -0.10457589 -0.121628374 0.052014958 0.09520116
0.03665109 -0.033904668 0.018662727 -0.08537547 -0.072713226 -0.07141474 -0.03620301 -0.0025199861
-0.012055514 0.011702153 -0.06059992 -0.11728679 0.038540255 -0.049970105 0.059071343 -0.012717679
00000000: 8b9c 333e a4c1 c8bc f228 003c 9340 80bc
00000010: 0544 833d 7cdc 55bb dde2 b73c 0b74 373b
00000020: 852e 373e 9519 643d 5f29 66be b728 a63d
00000030: 8d22 253e f795 633d 09f6 1d3d 326c 85bd
00000040: aa2d 0cbe a263 1dbe 1e9a 41bd 0218 b03a
00000050: 6f39 feba ff6f c3bd 8299 e83b 6229 bc3d
00000060: 080c 593d c901 acbe b869 87bd 669c 173c
00000070: 3b35 cebc 3a93 c0bc b657 9b3c 0232 4fbd
00000080: 880d cb3b 23ab 933a 7479 71bd 76cc b5bb
00000090: d6aa 88bd b613 303e 1812 133e 1443 11bd
000000a0: 9185 e9bc 38ca c13d 3ea2 69bc 29e8 043c
000000b0: 3e6f a83c 9741 853d 788f 8bbd 74dc 1dbd
000000c0: 9c02 e03d 4bcd b13c 2975 9bba 171e 90bd
000000d0: 65f1 0abd ff38 bdbd d454 ad3d b89a 423b
000000e0: b520 7ebd ce82 9f3d 3e33 d03d 9ab9 ddbc
000000f0: 9ecf a0bc 283c 183d ce9b 003d 504d c839
00000100: 525f 01bd 3fce 70bd 057c 4d3d 70e2 303d
00000110: eaaf 403d 4668 86bd bc02 c93c 616e 9ebc
00000120: 8b30 703d b430 633d 8e18 adbc 04e4 153e
00000130: db4a 6cbd f347 b5bd d972 5e3d e951 e5bd
00000140: 9751 a03b e501 cabb 4167 f13d 0374 203d
00000150: c496 383d 104c f33c 69e5 f5bd 1dee 1e3d
00000160: 2fe2 5f3d 0226 333c d41b 6ebc 26cb 1b3e
00000170: 1d55 0c3e b3d5 9f3c 2f1e b6bc fe67 573e
00000180: 085b abbd 3ef1 63bd 8148 57bd bd88 753b
00000190: acbc e5bd 565c 473d dde5 283d cf1b 0e3d
000001a0: 7232 03bd 84fa d23d 74a2 2c3e ae30 3fbc
000001b0: 1c18 923d c818 103e 64e3 333d d74b 8bbd
000001c0: 95ed d53c 298d ba3d d05e dd3d 5479 293e
000001d0: 1c0f eb3d 05de 5f3c 2f1f c9bc 246e ea3c
000001e0: f630 2d3e 05c1 9e3d c6fb 2d3d f0e6 cb3d
000001f0: ba8f cc3d e0c9 583d 8963 14bd 9309 36be
00000200: 54f5 36be 7b6d 99bd b4db 523e 046b 913d
00000210: f385 8b3e eadb 453e e9c3 233e aaf1 453c
00000220: 87a3 74bd 685b 33bd 1301 e2bd 62d2 61bd
00000230: ae49 10bc ea7b 13bd 3378 9cbd 3d06 7ebc
00000240: 1d0a 9dbd e350 5fbd b600 12be b417 c8bd
00000250: 4b3a fabc a91d 9ebc 8a2e 843d fe68 5c3d
00000260: 2bff 073d 5bf2 4dbd 01bf 963d c20a 9dbd
00000270: d13b 45bd 5d37 123d b659 05bd d3ba f0bc
00000280: e61e 253c e955 e9bd 506b 743d 059a f93b
00000290: 5f0d 8a3c c0bd 413e d911 8cbd 831d f1b9
000002a0: c003 79bc 2e69 a6bd c196 853d cd90 06be
000002b0: 4755 30bc fec8 acbd d933 063e 595b d1bc
000002c0: 9b59 09be b843 08be 735e 00bc 68be 30bc
000002d0: e610 24bd ae8d 4a3d 0d01 083e 554f 423e
000002e0: d3dc c53d 44db 473d 358d deb9 9d63 81bd
000002f0: f954 93bd a357 d2bb 0bed 683c 377c 1d3d
00000300: d9f5 b53d c7f7 203d e04b 5bbd 92e9 6a3b
00000310: f32e fa3d 09a5 f33d b36b 7a3d cfbb 063d
00000320: 43ae 0c3d 5741 77bd bf90 2e3c 4cb7 ae3d
00000330: 9334 ef3d 452a ff3d 4a8a f83d 9b95 2e3d
00000340: 1a59 4bbd 3a44 fcbc da9e 023e 32d5 95bd
00000350: 9603 183d 4c1e 203d 1422 e03c 19db 863c
00000360: 08bd 943c d73f 88bd e3c9 f1bd c0db 90bd
00000370: bec4 eb3c f44d 4a3b dde0 243e 0244 333e
00000380: 0fe4 0d3e 76fa 063c babc 9ebd e505 aebc
00000390: 43dd 2bbe aaf8 42bd 7e7a 2abd da09 75bc
000003a0: 446d e6bd 09e2 a1bd b918 eebc 548c ae3c
000003b0: e22b d6bd 4c18 f9bd a30d 553d d3f8 c23d
000003c0: 741f 163d 9fdf 0abd 93e2 983c 56d9 aebd
000003d0: acea 94bd e441 92bd 9b49 14bd 5a26 25bb
000003e0: 7e84 45bc 63ba 3f3c 9f37 78bd 0e34 f0bd
000003f0: 63dc 1d3d 74ad 4cbd cbf4 713d d05d 50bc

bias f4 [16]
-0.020058157 0.036216725 0.018380051 0.100793764 0.014193513 0.11695202 -0.06567313 0.01893703
0.15146294 0.12844275 -0.08827739 0.058949023 0.15896967 -0.006517343 0.015313729 0.067510486
00000000: 0151 a4bc fd57 143d c391 963c f66c ce3d
00000010: e98b 683c 8a84 ef3d a27f 86bd d521 9b3c
00000020: 1a19 1b3e 7f86 033e c7ca b4bd 8874 713d
00000030: f2c8 223e 708f d5bb 6fe6 7a3c f042 8a3d

weight f4 [1, 640]
-0.09216913 0.013598756 -0.035814088 -0.10287258 0.08537099 0.02414634 0.0065298616 0.019256024
-0.07606432 -0.018065624 -0.1955057 -0.058134433 -0.021952922 -0.11237552 0.06728122 0.035105363
-0.008651705 -0.0024413255 -0.06902952 0.038378153 -0.07157961 0.012417437 -0.000610937 -0.012160991
0.040084038 0.0018045784 -0.006763065 0.016546417 -0.017630747 0.022608355 -0.126399 -0.0013220615
-0.031922057 -0.07226726 0.082907856 0.031975955 0.0008028386 0.0050665545 -0.042570513 -0.033005588
-0.010279576 0.04594843 -0.036078002 -0.012381168 0.038637377 0.057511844 -0.06572747 0.073259436
-0.015144911 -0.10720178 -0.124374434 0.11876695 -0.038571257 0.19141366 0.12623757 0.06979593
0.021336367 0.09019206 -0.0029122508 0.093147226 -0.14554727 -0.038755283 -0.02699238 -0.111324534
0.079251945 0.022474132 -0.015892828 0.0040145633 -0.07970105 0.0041064867 -0.31513366 -0.051983457
-0.059826057 -0.114894554 0.10449942 0.097958416 0.0019050089 0.07361244 -0.090199634 0.01976879
0.006995095 0.048229378 -0.08844772 -0.021699376 -0.021738362 0.11356824 -0.09156075 0.0691974
-0.051810775 -0.1297879 -0.16937692 0.055579245 -0.0029836607 0.04072272 0.07556048 0.040740117
0.009528606 0.04045965 -0.040044058 0.13210773 -0.052277137 0.015287654 -0.06230786 -0.090111
0.023490418 0.06845165 -0.018723743 0.020204097 -0.068801805 -0.07361845 -0.15157668 0.025686434
-0.014154108 0.061929073 0.096737035 0.029683052 -0.007289769 0.08241452 -0.019051611 0.111924425
0.11815038 0.023061138 -0.036065664 0.020558525 0.047130756 0.15530664 -0.101983994 0.15489058
-0.05781786 -0.12277183 -0.19459711 0.043267958 -0.089480266 0.07983165 0.046452936 0.035586488
0.0062762997 0.10441946 0.022287397 0.14532742 -0.0693851 0.00030642998 -0.011138596 -0.027034868
0.037228957 -0.0028103837 -0.013119686 0.03899925 -0.040253095 -0.016111437 -0.10073343 0.041063923
0.009612646 -0.0017654917 0.033927 0.029420774 0.014473697 0.012158272 -0.03217787 0.12665494
-0.069732115 -0.027331226 -0.058420982 -0.040744178 -0.0001260346 -0.09607796 -0.12851697 -0.08199508
-0.10103151 -0.17390451 -0.05776883 -0.10395473 0.14931676 0.10080374 0.01745958 0.04468051
0.1162148 0.10570062 -0.11487841 -0.050241176 -0.069607764 -0.1003334 0.019786067 -0.05476211
-0.020638153 -0.04287469 -0.065436825 -0.0618808 0.13893393 0.089247786 0.30564713 0.15602088
0.03600965 0.115000896 0.12034397 0.002752962 -0.0775723 -0.096655026 -0.10367743 -0.077689074
0.04154061 -0.068177685 -0.03874715 -0.07071769 -0.11907914 -0.1374224 -0.042389832 0.021015514
-0.03486064 0.0072140843 -0.12631449 -0.029636273 -0.019791607 -0.2279017 -0.1566157 -0.08874782
-0.107869744 0.04797427 0.119378075 -0.036217928 -0.010528743 0.00934731 -0.1429088 -0.11479556
-0.059743732 -0.08146292 -0.05963261 0.03335687 -0.05457261 -0.057854593 -0.0062422412 -0.057081614
-0.1609075 0.093678266 0.020024924 0.27870122 -0.011962732 0.056104366 0.08326642 -0.040198583
0.11290721 0.01038618 -0.13593052 -0.033465777 -0.09221359 0.015773572 -0.16045809 -0.16771638
0.015060267 -0.026940878 -0.053401906 -0.10683642 -0.12080705 -0.013096416 0.07530363 -0.050182194
00000000: 2bc3 bcbd 51cd 5e3c cbb1 12bd dcae d2bd
00000010: fcd6 ae3d 8cce c53c 73f8 d53b cfbe 9d3c
00000020: 9cc7 9bbd 5cfe 93bc a532 48be 5f1e 6ebd
00000030: 9dd6 b3bc 2325 e6bd bcca 893d a4ca 0f3d
00000040: e2bf 0dbc a5fe 1fbb 595f 8dbd 6932 1d3d
00000050: 5598 92bd 8172 4b3c 4a27 20ba e53e 47bc
00000060: 292f 243d 9a87 ec3a b39c ddbb 5a8c 873c
00000070: 5b6e 90bc 2835 b93c bd6e 01be 0649 adba
00000080: b4c0 02bd db00 94bd 98cb a93d 38f9 023d
00000090: 9675 523a 5705 a63b 6b5e 2ebd de30 07bd
000000a0: ab6b 28bc 6c34 3c3d 87c6 13bd 62da 4abc
000000b0: 3a42 1e3d 8a91 6b3d 209c 86bd 0b09 963d
000000c0: 5c22 78bc 9b8c dbbd 06b8 febd 163c f33d
000000d0: e5fc 1dbd f101 443e 6c44 013e 2bf1 8e3d
000000e0: 9bc9 ae3c 9db6 b83d 76db 3ebb f9c3 be3d
000000f0: 580a 15be dcbd 1ebd 201f ddbc 1efe e3bd
00000100: d84e a23d ac1b b83c ad31 82bc 998c 833b
00000110: 4e3a a3bd b58f 863b 3359 a1be 9bec 54bd
00000120: 2b0c 75bd d64d ebbd cb03 d63d 6c9e c83d
00000130: 7eb1 f93a 1ec2 963d 96ba b8bd 28f2 a13c
00000140: 1c37 e53b 2b8c 453d 1424 b5bd e4c2 b1bc
00000150: a614 b2bc 7796 e83d 3484 bbbd 5eb7 8d3d
00000160: 8937 54bd 1fe7 04be 2571 2dbe 10a7 633d
00000170: 8589 43bb decc 263d 74bf 9a3d 1cdf 263d
00000180: df1d 1c3c 05b9 253d 3d05 24bd 4047 073e
00000190: 8d20 56bd 1179 7a3c 8736 7fbd 1e8c b8bd
000001a0: fa6e c03c 6130 8c3d 8962 99bc 1083 a53c
000001b0: f6e7 8cbd 45c5 96bd eb36 1bbe 5b6c d23c
000001c0: a2e6 67bc 57a9 7d3d 111e c63d df29 f33c
000001d0: 04df eebb f2c8 a83d 2012 9cbc a238 e53d
000001e0: d4f8 f13d b6ea bc3c 97b9 13bd 5a6a a83c
000001f0: 2e0c 413d b408 1f3e fcdc d0bd a39b 1e3e
00000200: 6cd2 6cbd cc6f fbbd 7744 47be be39 313d
00000210: 6e41 b7bd c77e a33d 6f45 3e3d 23c3 113d
00000220: 6ba9 cd3b dfd9 d53d 0f94 b63c b6d0 143e
00000230: c619 8ebd 56a8 a039 a87e 36bc 3a78 ddbc
00000240: 647d 183d 6a2e 38bb f4f3 56bc adbd 1f3d
00000250: 6ee0 24bd 22fc 83bc 544d cebd a532 283d
00000260: 5c7e 1d3c 1268 e7ba 0af7 0a3d d603 f13c
00000270: 1623 6d3c 7d33 473c f1cc 03bd d5b1 013e
00000280: b6cf 8ebd bce5 dfbc d74a 6fbd 5ee3 26bd
00000290: 2828 04b9 86c4 c4bd f499 03be 09ed a7bd
000002a0: 9ce9 cebd 0614 32be 029f 6cbd 38e6 d4bd
000002b0: 7ee6 183e 3172 ce3d 6507 8f3c e902 373d
000002c0: 0602 ee3d 9179 d83d 5f45 ebbd b1c9 4dbd
000002d0: 848e 8ebd 997b cdbd 6416 a23c 3c4e 60bd
000002e0: 5811 a9bc 5f9d 2fbd be03 86bd b976 7dbd
000002f0: b244 0e3e 8bc7 b63d c87d 9c3e f0c3 1f3e
00000300: db7e 133d 9785 eb3d e676 f63d 0a6b 343b
00000310: 3ade 9ebd 12f3 c5bd d554 d4bd 731b 9fbd
00000320: 7d26 2a3d bea0 8bbd 55b5 1ebd 70d4 90bd
00000330: c4df f3bd 75b8 0cbe f6a0 2dbd ba28 ac3c
00000340: 08ca 0ebd 2064 ec3b 9658 01be c5c7 f2bc
00000350: 0222 a2bc 105f 69be de5f 20be 6bc1 b5bd
00000360: d0ea dcbd ab80 443d 7e7c f43d 4059 14bd
00000370: c080 2cbc 7625 193c af56 12be ef19 ebbd
00000380: d8b5 74bd 08d6 a6bd 5341 74bd 37a1 083d
00000390: 8787 5fbd f0f8 6cbd b78b ccbb 69ce 69bd
000003a0: f0c4 24be 64da bf3d 4f0b a43c edb1 8e3e
000003b0: 56ff 43bc b1cd 653d 9687 aa3d 45a7 24bd
000003c0: e53b e73d cc2a 2a3c 5f31 0bbe 6913 09bd
000003d0: 7bda bcbd 9437 813c 204f 24be d8bd 2bbe
000003e0: 57bf 763c 1eb3 dcbc f5bb 5abd 0ecd dabd
000003f0: b069 f7bd 5a92 56bc ca38 9a3d d88b 4dbd
